model/model.pth (torch, 16799 bytes, 4 tensors)

linear1.weight f4 [256, 11]
00000000: 0c66 9b3e dbe1 b93d bcfe d83e cdd0 913e
00000010: 32ce ce3b 2380 633e a14a 983e 2796 843d
00000020: b69f 433e b665 413e 68d6 483e 8375 8ebd
00000030: 6ea5 98be 4840 5cbc 1eb8 69be 299f 34be
00000040: c35e 28be 5069 57be 702e 4b3e c381 be3b
00000050: ca44 84be 33a3 97be 0ca2 fabe cb47 c23d
00000060: 6011 5f3e 1ea1 993e c3d6 203e 0d73 78be
00000070: efab 923c f918 c63d 6e3e 633c 75a4 79be
00000080: 2519 273e a966 73be 6ed1 003e 4feb 90be
00000090: 82d5 abbc e8b1 7c3d 7b64 a9bd 7012 193d
000000a0: aefa 89be a53f 903c aafc cb3d cde9 3c3e
000000b0: 1086 02be 946a 5ebd 5d96 08be 7e35 19be
000000c0: 91d1 3dbd 71f4 6e3e 2be7 233e d8aa 9abe
000000d0: b890 25be b247 303e b53a 133e 710b 31bd
000000e0: e624 893e e1c7 8bbd 3a80 563e 0be4 043e
000000f0: 8aaf 4bbe 4d32 d73d 00b4 823e 808c b33d
00000100: 552b c2bd 0ad5 403e d17b d9bd 4405 9abe
00000110: 95c6 e13e 5a31 6e3d 25a1 06be 7bc2 9abc
00000120: a637 963d f29b 643e 9c76 5d3e b667 8c3d
00000130: 7a4b f63d 8d32 d3be 8450 9e3e c9d1 55be
00000140: 97c1 adbd 3445 85be f20a 093e 7736 9ebe
00000150: f887 313e 1146 86be f51b 8e3d e74b 4cbe
00000160: 0522 8f3e ce00 ccbe 8cca e83e fdb4 7c3e
00000170: a6b1 423e 47a6 153d 4dd6 dfbc d84a d23d
00000180: 2726 3d3e 6132 483e c29e 2c3e 2667 68be
00000190: 0926 b93e 9bbf 823e a7c8 963d c95f 493d
000001a0: 9901 523e 4e9e 0ebe 6c51 ae3e c6ad 313d
000001b0: f96e 6abd f23b a03e fcd4 82be 37c3 8abe
000001c0: 1157 3b3e 2156 ad3d d001 c93d 4324 15bd
000001d0: bf36 89be fba1 85be e0f4 dfba 811f a4bd
000001e0: b43d 403d 36eb 54be ad85 223f 36f1 a3be
000001f0: 77c3 dfbb 2362 ea3d 1762 fc3d ede2 08be
00000200: 77f7 b5bd 7428 7cbe 74ee 2c3e 95f0 4c3e
00000210: 8c7d 0abe d497 ee3e dca0 503d 885d 523e
00000220: 715d 833e c8b7 91bd 8538 763e 8ce1 32bd
00000230: de22 93bc 6d20 48bd 061e 8e3e e9db fabd
00000240: 0d2d 08be a7fa 893e 9e9c 82be e00a 8cbe
00000250: d580 2d3e 6b38 37be f559 bbbe 75f2 68be
00000260: 5de6 89be 7014 8e3e 7a97 a9be 282e b53e
00000270: 85da f4be 2cf1 443d f046 953e 5480 05be
00000280: 99e0 8b3d 2aff 0e3d 55d5 213e e836 2cbc
00000290: 19bd 08be 099c ae3e 7314 9dbe 5fc9 ea3e
000002a0: 0c9a babe 5286 42be b7f7 1a3e 7451 a63e
000002b0: 5f7b 223e 33c2 5e3b 546c 92be 9af8 8b3e
000002c0: 497f a43d c574 dc3e bf09 d4be 66d5 a7bd
000002d0: e87b 44be f4f0 28bd 8507 f13b 008a 803e
000002e0: 041b 633e 1667 2a3e 1f49 c63e 033e fc3e
000002f0: 1c37 60be a1ff f83c e7e8 2c3e fd9d 743d
00000300: 8f31 01bd a2c6 4ebd 80ea 9dbe 5501 013e
00000310: f3b7 c3bd 9576 8ebd d8b3 ba3e d861 88bd
00000320: 3f11 df3e 9102 3c3e 07d3 143e 3f02 a8bc
00000330: b4dd b53d c57d 8e3e 2527 793e 01f8 f03d
00000340: d86d 843e 4ebe 48be ce12 49be b6a1 8fbd
00000350: 6887 a5bd 0c27 a03e 416c c4bd 3f4e 51bd
00000360: f1be 85bc f540 95be 8140 903e 694e 80be
00000370: 4ab4 a5bd 84a1 87be ade5 4d3c e33d 84be
00000380: 89ff 02be 78ba 24be 8b68 133d 9f98 12bd
00000390: 8cfa a7bd 62a7 88bd 18ac 133e 39e9 bd3d
000003a0: fadc 92be 5f1f dcbd e9a6 9a3e d281 bdbd
000003b0: b104 72bd 446d 703d 600e e23d f0d9 3b3e
000003c0: fb35 973d 9c08 593e 85d2 8c3e cea5 b53e
000003d0: 9055 17bc 5ee8 293e 75e4 153d b67e 07be
000003e0: 0461 c83d f55e 1fbe 150c 44bd b14a b03d
000003f0: 0e5b 67bd 0cea bd3e 493f 4fbe 1219 c53e
0.30351293 0.09076282 0.42381847 0.28479615 0.0063112015 0.22216849 0.29744437 0.06473952
0.19103894 0.18886456 0.1961304 -0.06956007 -0.29813713 -0.01344306 -0.22824141 -0.1763884
-0.16442399 -0.21036267 0.19841933 0.0058138086 -0.25833732 -0.296167 -0.48951757 0.0948635
0.21783972 0.30005735 0.15706925 -0.24262638 0.01790425 0.09672732 0.013869865 -0.24379142
0.16318186 -0.2376963 0.12579891 -0.28304526 -0.020975832 0.061693102 -0.08271118 0.0373711
-0.26949066 0.017608473 0.09960301 0.18448563 -0.12746453 -0.05430086 -0.13338609 -0.14961812
-0.046342436 0.23335434 0.16006152 -0.30208468 -0.16168487 0.1721485 0.14377864 -0.043223802
0.26785964 -0.06825233 0.20947352 0.12977616 -0.19891182 0.10507641 0.25527954 0.087670326
-0.09480921 0.18831268 -0.10619319 -0.30082142 0.4409682 0.058152534 -0.1314741 -0.018891564
0.07334833 0.22325113 0.21627277 0.06855719 0.12026115 -0.41249505 0.30920804 -0.20880808
-0.0848419 -0.2602936 0.13383082 -0.30900928 0.17337024 -0.2622533 0.06938926 -0.1995083
0.27955642 -0.39844364 0.4546703 0.24678417 0.1901308 0.036535528 -0.027323866 0.102681816
0.18471585 0.19550468 0.16857436 -0.22695598 0.3616183 0.25536808 0.0736249 0.049163613
0.20508422 -0.13927576 0.34046495 0.043378614 -0.057234738 0.31295735 -0.2555312 -0.27102062
0.18294932 0.084636934 0.09814799 -0.036411535 -0.2679958 -0.26100144 -0.0017086528 -0.080138214
0.046933845 -0.20792851 0.63485223 -0.32019967 -0.006828721 0.11444499 0.12323397 -0.13367815
-0.08885091 -0.24624807 0.16887838 0.2001365 -0.13524455 0.4660021 0.050934657 0.20543492
0.25657228 -0.071151316 0.24044998 -0.04367213 -0.017960962 -0.04885905 0.2775728 -0.12248976
-0.13298436 0.26949045 -0.25510114 -0.27352047 0.16943677 -0.17892615 -0.3659207 -0.2274874
-0.26933566 0.27749968 -0.3312338 0.35386777 -0.47822967 0.048081562 0.29155684 -0.13037235
0.06829948 0.034911312 0.15804036 -0.010511138 -0.13353385 0.3410342 -0.30679664 0.4585676
-0.36445653 -0.18996552 0.15133558 0.3248402 0.15867375 0.0033990263 -0.28598273 0.27338105
0.0803209 0.43057838 -0.41413686 -0.081949994 -0.19187891 -0.041245416 0.0073556327 0.25105286
0.22178274 0.16640887 0.38727662 0.4926606 -0.21896023 0.03039533 0.1688572 0.059720982
-0.031541403 -0.0504824 -0.30842972 0.12598164 -0.0955657 -0.069562115 0.36465335 -0.06659287
0.43567845 0.18360354 0.14533626 -0.020508884 0.08880177 0.2783033 0.24331339 0.11766053
0.25865054 -0.19603845 -0.1963608 -0.07013266 -0.08082467 0.3127979 -0.0959096 -0.051100012
-0.0163264 -0.2915112 0.28174213 -0.25059822 -0.08091028 -0.26490414 0.012566966 -0.25828466
-0.12792791 -0.16086757 0.03598837 -0.035790082 -0.08202085 -0.06672551 0.14421117 0.09272999
-0.28684217 -0.10748171 0.30205467 -0.09253277 -0.059086505 0.058697954 0.11037898 0.18344855
0.07383343 0.2119469 0.27504364 0.3547806 -0.009236708 0.16592547 0.036594827 -0.1323193
0.09784129 -0.15563567 -0.047863085 0.08607996 -0.05648332 0.37092626 -0.20238985 0.3849569

linear1.bias f4 [256]
00000000: 73fc 27be f1e8 25be 8d2f 943e fc65 3bbe
00000010: 881d f0bd a4d7 6abe 56ca 4ebd 936e 2e3d
00000020: c0ec b4bd 5469 8a3e b894 53be 54f8 bb3d
00000030: c38c b4bd e64f 82be b3b8 8f3e bbca 403e
00000040: 2358 3ebe 6260 1e3e c3bb 39be 6927 5cbe
00000050: 4eb4 72be 1b8e 87be dbc5 dcbc 2830 dc3d
00000060: a3c9 f73d 4856 61be 1650 e0bb b6af 763e
00000070: 958c b1bd a563 5cbe 23ea 7f3e 6a7d 08be
00000080: 09b1 6f3d 0f86 5cbe fee7 8ebd f629 3bbe
00000090: f6d8 8b3d 9bae 883d 953c 3b3e 9256 6a3e
000000a0: 4471 6d3e 0158 3dbe a019 223e 4a66 123a
000000b0: 281d 323e f5f6 a3bd 4011 893d c494 253e
000000c0: 0bd0 763e 309e d8bc d3c1 9abd 3388 94be
000000d0: ae65 5c3d 26b7 1d3e 7a65 a83e 2e8a 073e
000000e0: ab39 19be 2691 8e3e 2b75 cc3d fe4f 43be
000000f0: 07a8 c0bd 14a2 683d 1cb1 293e 3313 533e
00000100: 16cc de3d 9ef8 adbd 91fb 103e 417b 8d3e
00000110: 92f6 553d 5fdd b1bb 1161 27be 183e a43d
00000120: 9234 63be 1a19 663e 01b8 083e a3ac 683e
00000130: ffc3 ca3d 2a0d 15be 0f20 b73e 6bfc 9f3c
00000140: 7a5e a13d 6bf9 0e3e ec1b 173c e382 82be
00000150: de68 81bd e1e4 e4bd 39ac 53be c609 a93e
00000160: 5ace 5abd ed62 ac3d 657c 6cbe d925 f83c
00000170: 57ee 983e bf9a 91be fe0a 523e e423 0abe
00000180: b6b8 513e 6f29 f7bd 7fee 693e 1637 8b3d
00000190: 345b 893c c442 663e 61f6 223e d0f5 db3d
000001a0: 5760 b9bd 31a8 ae3d 0683 99bc a62f 683d
000001b0: 4ea5 61bd 86f5 d9bd db6f 373e c152 62be
000001c0: 6d4c 8e3e 31f7 bf3d f908 7f3e e43b 863e
000001d0: 4eb3 b43d 6dbb 0dbe e8aa c7bd 69c7 4cbc
000001e0: 45fb eebd 3e7a d4bd de4f 5a3e a500 a23d
000001f0: b59c 9f3d bd75 8fbe e6ec 7d3e 089c 87bd
00000200: 9dc4 293d be4f c4bd a6d8 ad3e 390d 55be
00000210: 6120 2bbe 5666 3dbe a878 4ebd e5fb 62be
00000220: 24fc 8bbe d99a 7f3e ac32 713d 72de 0abe
00000230: 5ba3 9cbd 14de 073e c38b 2f3e fcd1 f1bd
00000240: 7bcc 8e3e f7e6 423e 8bd0 81bd 1edc 1cbe
00000250: c54b 4a3e 0183 96be f74d 843e 5d01 18bd
00000260: d421 91be 4df8 b73d e03f 8cbe 8a6d d63d
00000270: e6f5 253e 7fd0 8d3e 321e f5bd a048 3cbe
00000280: 1e5f ccbd 92cc d23c 0331 9bbe d233 373d
00000290: bc60 5fbd 699d 9f3d 8b26 4fbe d21f c53d
000002a0: 97f5 79be 023a 1c3e 45ab 3fbd 8c02 5d3e
000002b0: d5ec 7e3d 72b7 9b3e fbf3 2abe 38cc 8d3e
000002c0: 477d 0abd ea4b 153e ea7d 2a3e de92 7a3c
000002d0: 5398 63be 4a5e c9ba c80b 26bd 99fd 43be
000002e0: 5ce3 7abe f703 17be 3453 313e 9876 16be
000002f0: 5c94 94be 00bf 5cbe 3bff 65bd d185 3a3d
00000300: c74a f03d bbb3 e63c 8362 0c3e cabc 633e
00000310: 399d 853e e95c f93d bc79 173d 088f 71be
00000320: f8ab 50be b972 0a3e 3c2f 33be 0340 493e
00000330: 3700 2bbc 3d5d 103e 8ecb 5b3d 9730 153e
00000340: 68af 763e 733d 193e 6937 62be 8016 f23d
00000350: 6f54 04bb ab4f d0bd 3044 1cbe c6ab 1e3d
00000360: f7e8 bd3d 4406 6e3d c5b8 22be f0b1 3dbe
00000370: 1b8a b13d 3647 76bd 58dd f33d 15c6 a13c
00000380: c271 673e 1471 92bd c4ed fcbd c4c2 933e
00000390: af78 943e 5b62 793e 79b6 293e 0886 d5bd
000003a0: d649 f0bb 5d0b 933e ec16 783d 97d8 fd3d
000003b0: 5564 b3be 908f 8cbe fe3a abbc 945f 4c3e
000003c0: 0408 8cbd be4b 92bd 10bb 22be 56fc 30be
000003d0: 7b20 353d 2207 913d c54c 873d bf16 4b3e
000003e0: 8f42 5a3e d5ff 3ebe 4171 293e d147 6dbe
000003f0: 34be 75be b388 1f3d bbdf a4bd f0a0 50be
-0.16404895 -0.16202141 0.28942528 -0.18300623 -0.11724383 -0.22933823 -0.05048593 0.04258592
-0.08834219 0.27033484 -0.206622 0.09178224 -0.08815911 -0.25451583 0.28070602 0.18827336
-0.18588309 0.15466455 -0.18138032 -0.21499409 -0.23701593 -0.26475605 -0.026949814 0.107513726
0.12099006 -0.2200557 -0.0068454845 0.24090466 -0.08669392 -0.21522386 0.2499166 -0.13329092
0.058518443 -0.21535514 -0.06977843 -0.18277726 0.068284914 0.06673928 0.18284829 0.22884586
0.23187739 -0.18490602 0.15830088 0.00055847 0.17393935 -0.08006088 0.06692743 0.16170031
0.241028 -0.026442617 -0.075565 -0.29010162 0.053807907 0.15401897 0.3288992 0.13236305
-0.14963405 0.27845114 0.099832855 -0.19073483 -0.09407049 0.056795195 0.16571468 0.20612793
0.1087877 -0.084946856 0.14158465 0.27633098 0.0522371 -0.005428001 -0.16345622 0.08019656
-0.22188023 0.22470513 0.13351442 0.22722106 0.099006645 -0.14555803 0.35766646 0.019529542
0.07879348 0.13962333 0.009222966 -0.25490484 -0.0631883 -0.11176468 -0.20671166 0.3301527
-0.05341945 0.08417306 -0.23094328 0.030291485 0.2986934 -0.28438374 0.20512006 -0.13490254
0.20480618 -0.1206845 0.22844885 0.06797616 0.016767122 0.22486407 0.15914299 0.107402444
-0.090515785 0.08528174 -0.018739235 0.056686066 -0.055089287 -0.10642533 0.17913763 -0.2210188
0.27792683 0.0937332 0.24905767 0.26217568 0.08823262 -0.13841029 -0.09749395 -0.012498715
-0.116690196 -0.10374878 0.2131953 0.07910279 0.07793561 -0.28019515 0.24797401 -0.066215575
0.04144727 -0.09585522 0.33954352 -0.20805825 -0.1671157 -0.1849607 -0.050408036 -0.22166403
-0.27340806 0.24961413 0.058886215 -0.13561419 -0.07648345 0.1326831 0.17143159 -0.118076295
0.2789038 0.19033419 -0.063386045 -0.15318343 0.19755466 -0.29396823 0.25840732 -0.037110675
-0.2834612 0.089829065 -0.27392483 0.10470112 0.16207084 0.27698132 -0.1196865 -0.18387079
-0.0997908 0.025732312 -0.3031083 0.044727154 -0.054535612 0.077936955 -0.20229547 0.0962521
-0.24410091 0.15256503 -0.046794195 0.21583003 0.06223758 0.30413395 -0.16694634 0.2769487
-0.03381088 0.1457974 0.16649595 0.015293805 -0.22226076 -0.0015363183 -0.04053858 -0.19139709
-0.24500793 -0.14747606 0.17316896 -0.14693677 -0.2901944 -0.21557236 -0.05615161 0.045537774
0.11733013 0.028161874 0.13709454 0.22239986 0.26096514 0.12175924 0.03698133 -0.23589718
-0.20378101 0.13520326 -0.17498487 0.19653325 -0.010437063 0.14098068 0.05366092 0.14569317
0.2409035 0.14964847 -0.2209145 0.11820698 -0.0020191928 -0.101714455 -0.15260386 0.038738035
0.0927295 0.058111444 -0.15890796 -0.18524909 0.0866892 -0.060126506 0.11907452 0.019747773
0.22601989 -0.07150474 -0.12350038 0.28859532 0.28998324 0.24353926 0.16573514 -0.10425955
-0.0073330207 0.28719607 0.060568735 0.12394827 -0.35037485 -0.2745328 -0.020902153 0.19958335
-0.06837466 -0.07143353 -0.15891671 -0.17283759 0.04422043 0.070814386 0.066064395 0.19832896
0.21314453 -0.1865228 0.16547109 -0.23171927 -0.23998338 0.038948726 -0.08050486 -0.20373893

linear2.weight f4 [3, 256]
00000000: d644 17be 30fb fc3c 667b a33d 3bb3 3a3c
00000010: 863b 2c3e 4908 6e3c 6a62 c739 8e82 ff3d
00000020: 2c27 f5bd b238 58bc c32d b23b ae19 143d
00000030: aec9 ec3c 21c7 d43b 623b af3c 8099 02be
00000040: 7182 3fbd 8c61 6cbd 0382 17be 7c64 b6bd
00000050: f31d 553d a51f f9bc 9df2 d1bd 4d2a 18be
00000060: fe81 02be 00c2 6f39 fe78 0bbe 5284 02be
00000070: cb34 923c 62ec eebd 99a7 4fbd 5d7f 513c
00000080: 6e89 f0bd d203 de3d 1e63 65bc 4683 e6bd
00000090: e2d2 1ebd d0b8 bbbd e428 f3b8 0e0c 82bc
000000a0: 81d6 96bd 29c6 6d3e 3980 223e 6f1e 683e
000000b0: 5cb2 07bd a795 413d 1cbf 89bd c021 553e
000000c0: a585 753c 8885 e1ba e07f 523e 3e2b 94bd
000000d0: 8864 a2bd c90f f33a 2705 11bd 0771 95bc
000000e0: 4873 88bd 1fde 4abd ae2c 4b3d 3813 433d
000000f0: 38b7 4bbe 539f 043e e951 42bd 318e 5c3d
00000100: fcb8 47be f1b8 40be 0d03 c2bd 7d48 e23d
00000110: 2b6b 30be ed08 43be db11 a03d 1388 413e
00000120: 1522 16be da78 2cbc e316 18be 0ef8 acbd
00000130: cba8 83bc 9a15 463e 045f a23d 5ff1 71bc
00000140: 1a02 80bd 812b 72bd 1124 2cbd 61ec d2bc
00000150: 1881 34be 2273 febd 3cf3 50bd b1b2 d3bd
00000160: 686b 01bc 42ff 94bd ff34 9c3d 35a8 48be
00000170: 236e 24bd 1072 723c f0db 3f3d 1209 59bd
00000180: a347 e3bd d89d 80bc 241f 183d 81a6 cb3c
00000190: 07d6 f23c 2955 9ebc 7e50 dc3d 049c f0bd
000001a0: 9800 f1bd bf29 1dbe 0ad1 c3bd 1f35 e9bd
000001b0: 0db2 0ebc 9526 96bd 3225 39be 33e6 f5bd
000001c0: d7cb 6bbd e1a1 c9bd e231 f43c c487 673d
000001d0: 1daa b23b 15af 90bd a1f2 96bd f873 02be
000001e0: a35d 3f3e c3cc 6dbe 65f4 6ebd 8e36 573c
000001f0: 96c8 3bbc b5ee 473d bb7f 76bc 4624 d8bd
00000200: 3d9c 17be f74b 25bb 8fa1 aa3d ae17 963b
00000210: 8e90 873b 62f4 3fbe 931e ad3d 3e6f 6dbd
00000220: e398 dfbc 8fff 8e3d c9d4 14be 4b52 17be
00000230: f28b 4c3e 6549 0bbd ad67 8d3d c6bd 233e
00000240: 686c c83d 3ef9 82bd d8d3 22be 4e70 36bd
00000250: 3d12 d1bd 05c5 adbd e9c1 d53d 385c d6bd
00000260: 163f f2bb adc8 10be 215a b1bc 684b 5bbc
00000270: de66 52bd f20d e5bd 3893 70be 8cd8 bbbc
00000280: 9818 e2bc 3189 88be 3f3c 4f3c 2c9a 5d3d
00000290: 8075 cfbe 161f 92bd fee4 f7b9 9fb6 febc
000002a0: 94df 90bd 2e9d 723d 5a84 23b9 2c81 ec3d
000002b0: 22d9 0dbd 4a1d 00be 1355 45be 00a3 5cb8
000002c0: f3be 15bd 7338 2fbd 7810 cf3b 5a50 753e
000002d0: 053d 14bd c107 01bd 58cf eabd eb77 d33c
000002e0: 2eef 2bbd 5d37 babd ef25 88bd 4ba9 20be
000002f0: 5152 55bd 362b 713d d27d a9be 6685 e1bd
00000300: c25c e5bc 6b85 a0bd 9ffa 16bd 7228 84bd
00000310: c2a7 0e3d 48e4 693d 9000 d2bc a50a ae3d
00000320: 1fb2 20be ea11 703d 4b3a 543e c8ac f73d
00000330: a3d6 a2bd 07da 8fbc 0ab8 89bd 32a5 bb3d
00000340: eece 7ebd b9c0 6ebd 96ea 47be 156b a53d
00000350: fb2d b23c e1cf 3f3c 6f38 353e f7ee 8dbd
00000360: 8d90 26be 6b71 dd3c d479 29be bd1e e8bd
00000370: 2994 d6bd 1448 83bd b922 21bd 368c f8bc
00000380: b968 0ebe 75ce 98be 75fa 8e3d 34bc 0bbe
00000390: cf85 203e fb43 19be 2e0b 3ebe dec0 423e
000003a0: 496b 61be d83f 01be 0eb7 a1bc 71ba f33d
000003b0: b909 953b 0452 b2bc f033 dc3c 2525 10bd
000003c0: 4dac 123d 358d d93d 57b5 c2bc 154a 0dbe
000003d0: cd08 52be f080 02be c95e 42bc cda5 0e3e
000003e0: 0066 123d 1664 763d 5e62 95bd a18a a9bd
000003f0: adbe 74be 4856 7dbd fe32 82be c5ef 66be
-0.14772353 0.030881494 0.07982521 0.011395271 0.16819581 0.0145283425 0.00038029562 0.12476073
-0.11970362 -0.013197111 0.005437584 0.036157303 0.028904762 0.0064934646 0.02139062 -0.12753868
-0.046755258 -0.057710215 -0.1479569 -0.089058846 0.052030515 -0.030410597 -0.10251353 -0.14859886
-0.127449 0.00022865087 -0.13620374 -0.12745789 0.01784744 -0.1166618 -0.050696943 0.012786713
-0.11744963 0.108405724 -0.014000682 -0.11255507 -0.038775332 -0.091661096 -0.000115947594 -0.015874889
-0.07365132 0.23220123 0.15869226 0.2266786 -0.03312908 0.04726186 -0.06725904 0.20813656
0.014985477 -0.0017205933 0.20556593 -0.0723481 -0.07929331 0.0018544133 -0.035405304 -0.018242372
-0.06662613 -0.049528237 0.049603157 0.04762575 -0.19894111 0.12951402 -0.047441397 0.05384654
-0.1950416 -0.1882055 -0.09473238 0.11048982 -0.17228381 -0.19046374 0.07815906 0.18899564
-0.14661439 -0.01052686 -0.1485248 -0.0844575 -0.016071698 0.19344178 0.07928279 -0.01476702
-0.06250401 -0.05912352 -0.042026583 -0.02574748 -0.1762737 -0.124243036 -0.051013216 -0.10336817
-0.007899143 -0.07275249 0.07627296 -0.19595416 -0.040144097 0.014797702 0.046840608 -0.052987166
-0.11097648 -0.015700266 0.037139073 0.024859669 0.029643072 -0.019327717 0.1075754 -0.117485076
-0.117676914 -0.15347956 -0.095613554 -0.11387085 -0.008709443 -0.07331578 -0.18080595 -0.12006798
-0.057567444 -0.09845329 0.029808942 0.05652596 0.005452408 -0.07064644 -0.073704965 -0.12739551
0.18688063 -0.23222642 -0.05833854 0.013135565 -0.011461398 0.048811633 -0.015045102 -0.105537936
-0.14805694 -0.002522228 0.08331596 0.0045804596 0.0041371053 -0.18745568 0.08453097 -0.057967417
-0.027294582 0.06982338 -0.14534296 -0.14777486 0.1997526 -0.03400554 0.0690454 0.15990362
0.09786302 -0.063951954 -0.15901124 -0.044540696 -0.10208557 -0.08484844 0.10437376 -0.10466808
-0.0073927743 -0.14139052 -0.021649422 -0.0133846775 -0.051367633 -0.111843005 -0.2349366 -0.022930406
-0.027599618 -0.2666717 0.012648641 0.054102108 -0.40519333 -0.071348354 -0.00047282124 -0.03109294
-0.07073894 0.05923193 -0.00015594196 0.11548075 -0.034630902 -0.12511173 -0.19270734 -5.2603893e-05
-0.036559056 -0.042778444 0.006319102 0.23956433 -0.036191005 -0.031501535 -0.11465329 0.025814017
-0.041976146 -0.09092591 -0.0664786 -0.1568958 -0.052080456 0.0588791 -0.33103806 -0.11011772
-0.027998332 -0.078379475 -0.036860105 -0.06453027 0.034827955 0.05710247 -0.025635034 0.08498124
-0.15692948 0.058610834 0.20725362 0.12093502 -0.07951095 -0.017560018 -0.06724556 0.09162368
-0.062209062 -0.058289263 -0.19523081 0.08077065 0.02175044 0.011707277 0.17697309 -0.069303446
-0.16266079 0.027031621 -0.1655038 -0.11333988 -0.10477478 -0.06410232 -0.039339755 -0.030340295
-0.13907136 -0.29845014 0.06981365 -0.13646013 0.15676044 -0.14967339 -0.18558952 0.19018885
-0.22013582 -0.1262201 -0.019740608 0.11900795 0.004548278 -0.021767624 0.026880234 -0.035191674
0.03580885 0.10622636 -0.02376811 -0.13797791 -0.2051117 -0.12744498 -0.011863419 0.13930435
0.035741806 0.060154043 -0.07294153 -0.082783945 -0.23900862 -0.061849862 -0.2542953 -0.22552402

linear2.bias f4 [3]
00000000: 1209 65bd 3a53 80bc aadf 12bd
-0.055916853 -0.015664686 -0.035857834
