model/model.pth (torch, 16799 bytes, 4 tensors)

linear1.weight f4 [256, 11]
0	0x3ed81550	0.4220376
1	0xbe8a4926	-0.27008933
2	0x3f0e88a2	0.55677235
3	0x3e7488bc	0.23880285
4	0xbdb749c8	-0.089496195
5	0xbd5f700a	-0.05455021
6	0x3e942445	0.2893392
7	0xbdc063a1	-0.09394003
8	0x3e612ab6	0.21988949
9	0x3e302d14	0.17204696
10	0xbdd3786c	-0.10325703
11	0x3e3daef4	0.1852377
12	0xbe618ffe	-0.22027585
13	0x3ec4e947	0.38459226
14	0xbd8336ef	-0.06406962
15	0xbdb8e466	-0.090279385
16	0x3c9691f2	0.018380139
17	0xbe0ff264	-0.14057308
18	0xbe3756e0	-0.17904234
19	0xbdd17fed	-0.10229478
20	0x3ce1cd0a	0.02756359
21	0xbd7ceb9d	-0.061748136
22	0xbe6775d7	-0.22603546
23	0xbd9427d9	-0.07234163
24	0x3f141fbc	0.5786092
25	0x3e3e4499	0.18580855
26	0xbe078116	-0.13232836
27	0xbe7d24af	-0.24721025
28	0xbd328aa1	-0.043589238
29	0xbe280c1d	-0.16410871
30	0xbec41aed	-0.38301793
31	0xbde0244d	-0.10944424
32	0x3e4afefa	0.19823828
33	0x3e8ccc96	0.27499837
34	0x3e4d886d	0.20071574
35	0x3efd9f57	0.4953563
36	0x3c46fcea	0.01214526
37	0x3d15a67c	0.036535725
38	0x3e54f4d6	0.20796522
39	0xbe87ed6b	-0.26548323
40	0x3e86ee12	0.26353508
41	0x3e796f79	0.2435893
42	0x3e438ed2	0.1909745
43	0xbbd4c40a	-0.0064930962
44	0x3e054af5	0.13016875
45	0xbe107726	-0.14107952
46	0xbd441d70	-0.047879636
47	0xbe10da8e	-0.14145872
48	0xbe8a3fb0	-0.27001715
49	0x3e281e5a	0.16417828
50	0xbdf42ab8	-0.119222105
51	0xbd521bec	-0.05129616
52	0xbe941b03	-0.28926858
53	0x3e750d94	0.23930961
54	0xbd201ca6	-0.03908982
55	0x3e90eb45	0.28304496
56	0xbc231f9d	-0.009956268
57	0xbe529ed0	-0.20568395
58	0xbe5f5381	-0.21809198
59	0x3d7b59a3	0.06136478
60	0xbe48e066	-0.19616851
61	0x3c244679	0.010026568
62	0x3e1595cc	0.14607924
63	0x3c32d58c	0.010915171
64	0x3e9c27e9	0.304992
65	0x3df13273	0.117772005
66	0xbea66b33	-0.32503662
67	0x3eb3ccd6	0.35117215
68	0xbe60170f	-0.21883796
69	0x3e5df491	0.21675326
70	0x3d9a9267	0.07547455
71	0x3deb08eb	0.1147631
72	0xbda34066	-0.079712674
73	0x3dd2cd0f	0.10293018
74	0xbdbff404	-0.09372714
75	0x3dd0c655	0.10194079
76	0xbe5255c3	-0.20540528
77	0x3d54bdc5	0.05193879
78	0x3e00f7a3	0.12594466
79	0xbdd1afab	-0.10238584
80	0xbc21c8d6	-0.009874543
81	0xbe6f6e84	-0.23382002
82	0xbe7ef7bb	-0.24899189
83	0xbe6a7e6b	-0.22899787
84	0xbda35f5c	-0.07977173
85	0xbe973281	-0.2953072
86	0xbd97fa5a	-0.07420798
87	0xbe3f4881	-0.18680002
88	0x3f09b575	0.53792506
89	0xbe29041f	-0.16505478
90	0xbdd3df17	-0.103452854
91	0x3e88e6d6	0.26738614
92	0x3e9a0548	0.30082154
93	0xbe6d436c	-0.2317025
94	0x3e2760be	0.16345498
95	0xbd1274ca	-0.03575591
96	0xbdc2bf54	-0.09509149
97	0x3e709333	0.23493652
98	0x3daa6539	0.08320088
99	0x3eb4c31b	0.35305104
100	0xbe488855	-0.19583257
101	0x3ec496e3	0.38396367
102	0x3e6fa15f	0.23401402
103	0xbcd333b4	-0.02578149
104	0xbeb99022	-0.36242777
105	0x3e3cc7d5	0.18435605
106	0x3d0d7877	0.034538712
107	0x3d858019	0.06518573
108	0x3e9d3bdf	0.3070974
109	0xbd7d1f8f	-0.061797675
110	0x3e8d9e82	0.27659994
111	0xbe821afd	-0.25411215
112	0x3ee77d62	0.45212847
113	0x3dcf5722	0.10124041
114	0x3e2f0c11	0.17094447
115	0x3cbcdae1	0.023053588
116	0x3d40fdc6	0.047117017
117	0xbe5c3888	-0.2150594
118	0xbe350b3c	-0.17680067
119	0xbe025826	-0.12728938
120	0xbe4dcab5	-0.20096858
121	0x3ee7f628	0.4530499
122	0x3ee4b2a6	0.44667548
123	0xbf0981b5	-0.5371354
124	0xbd6c586a	-0.057701506
125	0x3bfeac88	0.007772032
126	0x3e85a073	0.26098976
127	0x3eb00033	0.34375152
128	0x3bc62ce3	0.0060478314
129	0x3d1605f2	0.036626764
130	0xbe5a4b06	-0.21317682
131	0x3dfae2b6	0.12250273
132	0x3e4aef56	0.19817862
133	0x3ed369bd	0.4129161
134	0xbdfa8649	-0.12232644
135	0xbe53247d	-0.20619388
136	0xbdc1becc	-0.0946022
137	0x3debc5ba	0.11512323
138	0x3e1994a8	0.14998114
139	0x3e6da221	0.23206379
140	0x3df43ac1	0.11925269
141	0x3d9695a5	0.07352761
142	0x3e5eb8d4	0.21750194
143	0xbe0b840a	-0.13624588
144	0x3e40659e	0.18788764
145	0x3ea421dc	0.32057083
146	0x3df8937f	0.12137508
147	0x3b84a7b6	0.004048313
148	0x3d17a3e3	0.03702153
149	0x3e7615ee	0.24031803
150	0xbe4ce5b4	-0.200095
151	0xbe63afe0	-0.2223506
152	0x3d9c1646	0.07621436
153	0x3d02d848	0.031944543
154	0x3e675595	0.2259124
155	0x3e5f506c	0.21808022
156	0x3ee4a56f	0.44657466
157	0xbe449d72	-0.19200686
158	0x3e768f76	0.24078164
159	0xbe27cc6b	-0.16386573
160	0x3e0261a5	0.12732561
161	0x3e9cda3b	0.30635247
162	0xbda07559	-0.07834882
163	0x3d2e5b11	0.042567316
164	0xbdef52ee	-0.116857395
165	0x3ebc6a90	0.3680005
166	0x3eb5346e	0.35391563
167	0xbebd8a6c	-0.3701967
168	0x3e89625a	0.2683285
169	0xbe4678da	-0.19382039
170	0x3d9a4aa6	0.07533769
171	0x3e04a991	0.1295531
172	0x3e07a26d	0.13245554
173	0x3e612399	0.21986236
174	0xbc6ee4ce	-0.0145809185
175	0x3a9aaa73	0.0011800065
176	0xbcfcbc9a	-0.030851651
177	0xbd8424ad	-0.06452308
178	0xbd74b774	-0.059745267
179	0x3d36761f	0.044546243
180	0xbd026237	-0.031831946
181	0x3eae806d	0.34082356
182	0x3e514f69	0.20440449
183	0xbe3a5448	-0.18196213
184	0xbebdcbfd	-0.37069693
185	0x3e4ce733	0.2001007
186	0x3e13f991	0.14450671
187	0xbdd5b43b	-0.10434767
188	0xbe4d99d2	-0.20078209
189	0xbe326371	-0.17420746
190	0xbdf90d59	-0.12160749
191	0xbe874955	-0.26423135
192	0x3e075036	0.13214192
193	0xbeb49529	-0.3527005
194	0x3d399906	0.04531195
195	0x3de3739a	0.111060336
196	0x3eb18e4d	0.3467888
197	0x3d9d39e9	0.07677061
198	0xbbd8f357	-0.0066208052
199	0x3ccf1062	0.025276367
200	0x3eb0168e	0.34392208
201	0xbe894d3e	-0.26816744
202	0xbe4ffdec	-0.20311707
203	0x3e25f402	0.16206363
204	0x3e880682	0.26567465
205	0x3e883d5d	0.26609316
206	0xbd93b2b4	-0.07211819
207	0x3e8bba74	0.2729069
208	0x3e106296	0.14100108
209	0x3e93f871	0.28900483
210	0x3e4bddba	0.199088
211	0x3f1443a0	0.5791569
212	0x3df0bb9f	0.11754536
213	0x3df97739	0.12180943
214	0x3b0e6c0e	0.0021731886
215	0x3dd66d23	0.10470035
216	0x3d922f7c	0.07137963
217	0x3e0c95e1	0.1372905
218	0xba7e5354	-0.0009701748
219	0x3e03859f	0.12843941
220	0x3f0ca020	0.5493183
221	0xbd397fe4	-0.04528798
222	0x3eea0350	0.45705652
223	0x3dfbe14a	0.1229883
224	0xbd9b3092	-0.075776234
225	0x3e529cd4	0.20567638
226	0xbd4732b9	-0.048632357
227	0xbd6144e8	-0.054997355
228	0x3e8f0a00	0.27937317
229	0x3e820f07	0.2540209
230	0x3e847381	0.25869372
231	0xbeb02590	-0.34403658
232	0xbec9e74f	-0.39434287
233	0x3f0461eb	0.5171191
234	0x3de79a77	0.11308759
235	0x3e28bc81	0.16478159
236	0xbdba2bc9	-0.090903826
237	0x3e08a9b5	0.13345988
238	0xbc87dd01	-0.016584875
239	0xbdc50280	-0.096196175
240	0x3ce7a52f	0.028277008
241	0x3da16940	0.07881403
242	0x3f005d20	0.501421
243	0x3b0a7e1d	0.0021132298
244	0x3e9dcaf0	0.30818892
245	0xbe0ba1c3	-0.13635926
246	0xbe9b147a	-0.3028906
247	0xbdc025d9	-0.09382219
248	0x3e742eea	0.23846021
249	0x3ea03440	0.31289864
250	0x3e9416eb	0.28923735
251	0x3e2900db	0.16504233
252	0xbc382e4b	-0.011241506
253	0x3d6702e8	0.056399256
254	0x3e862500	0.26200104
255	0x3e2aa373	0.16663913

linear1.bias f4 [256]
0	0xbe1ed0c1	-0.15509321
1	0x3e371bdf	0.17881726
2	0x3e93c593	0.28861675
3	0x3e6f1235	0.23346789
4	0xbddd74ad	-0.1081327
5	0xbd4e9f5b	-0.050444942
6	0xbd932975	-0.07185642
7	0xbda7b496	-0.08188741
8	0xbe23f4ad	-0.16011305
9	0xbc48c7b4	-0.012254644
10	0x3e5415ef	0.20711492
11	0x3db77a9d	0.089589335
12	0x3deb1009	0.11477668
13	0x3b70e3ba	0.003675683
14	0x3e2a1705	0.16610344
15	0xbd62e453	-0.05539353
16	0xbe32f11d	-0.1747479
17	0xbe0cc0d3	-0.13745432
18	0x3e74d15e	0.23907992
19	0xbd7fd586	-0.06245949
20	0xbe421b7f	-0.18955801
21	0x3e60f762	0.21969369
22	0x3e662ca4	0.22477967
23	0xbeab9ed0	-0.33519602
24	0xbd659181	-0.056046966
25	0x3e487ba7	0.1957842
26	0x3e713251	0.2355435
27	0xbe0753fc	-0.13215631
28	0xbdc4733b	-0.09592291
29	0xbe4d9b4e	-0.20078775
30	0x3e72c852	0.23709229
31	0x3d9ce8d6	0.076615974
32	0xbc94e6b5	-0.018176416
33	0x3e91cff3	0.28478965
34	0x3e67411e	0.22583434
35	0xbd7506cb	-0.05982093
36	0x3dc60753	0.09669366
37	0xbc54dc74	-0.012992013
38	0x3e2d48c2	0.16922286
39	0x3db11c02	0.0864792
40	0xbe411a1c	-0.18857616
41	0x3d24e0e4	0.040253535
42	0xbd70acff	-0.058758732
43	0x3d50af8c	0.050948665
44	0x3dccfc14	0.100090176
45	0xbdcfd911	-0.10148824
46	0x3dab89b6	0.08375876
47	0xbe5127bf	-0.20425318
48	0x3d25602f	0.04037493
49	0xbe0e7bcd	-0.13914414
50	0xbd08e638	-0.03342268
51	0xbe00ea2c	-0.1258933
52	0x3d437852	0.04772217
53	0xbc64e471	-0.01397048
54	0x3e92a1bc	0.2863902
55	0xbe8bb364	-0.27285302
56	0xbda533d2	-0.080665246
57	0xbe5aa76b	-0.21352927
58	0x3e86c434	0.26321566
59	0x3e69581b	0.22787516
60	0x3d92bba0	0.07164693
61	0xbe527abd	-0.20554633
62	0x3d0f2dc2	0.034955747
63	0xbe5ea36a	-0.21742025
64	0xbcd6a02a	-0.026199419
65	0xbddab9d0	-0.10679972
66	0x3c700d9d	0.014651683
67	0x3e8c9d51	0.27463773
68	0x3d9f50c1	0.077790745
69	0xbd37cec6	-0.04487493
70	0xbdc18922	-0.09449984
71	0x3cda5f04	0.026656635
72	0xbe257b72	-0.16160372
73	0xbd1f7df9	-0.038938496
74	0xbd937dee	-0.072017536
75	0x3e8c5858	0.2741115
76	0xbe29c6bf	-0.16579722
77	0xbe14c078	-0.14526546
78	0x3da87fdb	0.082275115
79	0xbe685f65	-0.2269264
80	0xbdd5a79a	-0.10432358
81	0x3c0c1f0b	0.008552323
82	0x3e0c965c	0.13729233
83	0xbeac571a	-0.33660203
84	0x3d461b81	0.048366074
85	0xbde5ea1a	-0.11226292
86	0x3e8a505b	0.2701443
87	0x3b96a602	0.0045974264
88	0xbe815930	-0.25263357
89	0xbe67108c	-0.22564906
90	0xbdb94964	-0.09047201
91	0x3e681270	0.22663283
92	0xbe090446	-0.13380536
93	0xbe19e9e3	-0.15030627
94	0x3e530364	0.20606762
95	0x3e0595b4	0.13045388
96	0xbe3646b7	-0.17800413
97	0xbea0d479	-0.31412104
98	0x3dedd296	0.11612432
99	0xbd9fc0f8	-0.07800478
100	0xbe5c1b67	-0.21494828
101	0xbe1294fa	-0.14314643
102	0x3e4d3190	0.20038438
103	0x3e864282	0.26222616
104	0xbe5d81bc	-0.21631521
105	0x3e0daace	0.13834688
106	0xbe8165f0	-0.25273085
107	0xbd8cbd46	-0.068720385
108	0xbc28e070	-0.010307416
109	0xbdd57fda	-0.104247764
110	0xbdf9a343	-0.12189343
111	0xbe610a8a	-0.21976677
112	0x3e799ef1	0.24377038
113	0xbb983e69	-0.0046461117
114	0xbd6e33dd	-0.05815493
115	0xbd4e8e98	-0.050428957
116	0x3d15b946	0.036553644
117	0x3e2a0d75	0.16606696
118	0xbe2569bd	-0.16153617
119	0x3c8d6ae4	0.017262883
120	0x3e588159	0.21143092
121	0x3dbc7126	0.09201269
122	0x3e2012b0	0.15632129
123	0xbd3d6cff	-0.046246525
124	0xbed0124b	-0.40638956
125	0xbe034c54	-0.12822086
126	0x3d78b2e0	0.060717463
127	0x3c67c6be	0.014146505
128	0x3dd7165e	0.10502313
129	0xbe889137	-0.2667329
130	0x3d9f0e35	0.07766382
131	0x3c587089	0.013210424
132	0x3d4fe8ae	0.05075901
133	0xbd5c09ac	-0.05372016
134	0xbc8cda26	-0.017193865
135	0xbe81de97	-0.25365135
136	0xbe8d87e1	-0.2764273
137	0x3dca839a	0.09888382
138	0xbd121042	-0.035660036
139	0x3c61972f	0.013768955
140	0xbeb7eb58	-0.3592174
141	0x3d27a8f4	0.04093261
142	0x3e43d290	0.19123292
143	0xbea292dd	-0.31752673
144	0x3d2c3af1	0.0420484
145	0x3e5f492c	0.21805257
146	0x3c8357bd	0.016033048
147	0x3df82f70	0.12118423
148	0x3d9208a6	0.07130556
149	0x3e694699	0.22780837
150	0xbe64393f	-0.22287463
151	0x3e7edd12	0.24889019
152	0x3bb95bc9	0.0056566936
153	0x3d0f7535	0.035023887
154	0x3bc433c5	0.0059876167
155	0xbe868ce9	-0.2627938
156	0xbe14c2bc	-0.1452741
157	0x3e149f45	0.14513882
158	0xbdae9278	-0.085240304
159	0x3d648e4e	0.055799775
160	0x3e17c078	0.14819515
161	0xbe8512a3	-0.2599078
162	0xbe8e2519	-0.27762678
163	0xbdda5772	-0.1066121
164	0xbde49c7b	-0.11162659
165	0xbe85600a	-0.26049834
166	0x3cc8d5bc	0.024515979
167	0x3e52a643	0.20571236
168	0x3e6b7522	0.22993901
169	0xbe541872	-0.2071245
170	0xbdc6414d	-0.09680424
171	0x3e546434	0.2074135
172	0xbd834244	-0.064091235
173	0xbdf97d3f	-0.12182092
174	0xbd843f8f	-0.06457435
175	0xbe9a14f0	-0.300941
176	0xbeba9c30	-0.36447287
177	0x3c82ffc4	0.0159911
178	0x3e5e96fc	0.21737283
179	0xbe5ecb0d	-0.21757145
180	0xbd34fe28	-0.044187695
181	0xbe2ff461	-0.17183067
182	0x3e7c3d34	0.24632722
183	0xbe278e20	-0.1636281
184	0xbd92e06f	-0.071717136
185	0x3d18c7e9	0.037300024
186	0x3e0ecbbe	0.13944909
187	0xbe61f5a6	-0.22066364
188	0xbe019b4f	-0.12656902
189	0xbe1da8cc	-0.15396422
190	0x3e22a1e2	0.15882066
191	0xbe3e2d8d	-0.18572064
192	0xbe3c133d	-0.18366714
193	0x3e3002fb	0.17188637
194	0x3e1ebac6	0.15500936
195	0xbc10413a	-0.008804614
196	0x3e9bd734	0.30437624
197	0xbe197fa9	-0.14990105
198	0x3e3d3b26	0.18479595
199	0x397ff977	0.00024411628
200	0x3db239f9	0.08702464
201	0xbd25c999	-0.04047546
202	0x3e1f5e99	0.1556343
203	0xbdb4645b	-0.08808204
204	0x3e21d921	0.15805484
205	0x3eaae3e2	0.33376986
206	0x3c89a373	0.016801571
207	0xbe5431f4	-0.2072218
208	0x3e17d137	0.14825903
209	0xbe4b31db	-0.19843237
210	0xbd3b6b4e	-0.04575663
211	0x3e1be23f	0.15223025
212	0xbd0f30fd	-0.03495883
213	0xbe40b805	-0.18820198
214	0x3e14c652	0.14528778
215	0x3b97f9ff	0.004637956
216	0xbd111e16	-0.035429083
217	0xbdada6c2	-0.08479072
218	0x3e6fab79	0.23405255
219	0xbc185948	-0.00929863
220	0x3e8f215e	0.27955145
221	0xbd311ecd	-0.043242265
222	0x3e65c125	0.2243696
223	0xbe1e6a32	-0.15470198
224	0xbe35cdf6	-0.17754349
225	0x3e80fc1b	0.2519234
226	0x3e0e39fd	0.13889308
227	0x3e006bae	0.12541077
228	0x3e2a42cc	0.16627043
229	0xbd5a2a64	-0.053263083
230	0x3e173f9d	0.1477036
231	0x3d2bb2ac	0.04191844
232	0x3e3b407f	0.18286322
233	0x3de0db02	0.109792724
234	0x3e3a6095	0.18200906
235	0xbb39529c	-0.0028277999
236	0x3e569f07	0.20959102
237	0xbdebd821	-0.11515833
238	0xbdbc188f	-0.09184372
239	0x3e6409be	0.22269341
240	0xbd0cfacf	-0.034418877
241	0xbe8ee1f3	-0.2790676
242	0x3ea5eb78	0.3240621
243	0xbd343ec4	-0.04400517
244	0xbeda7395	-0.42666307
245	0xbbdd820e	-0.0067598885
246	0xbe3b11dd	-0.18268533
247	0xbbf3fa21	-0.007445589
248	0xbdef5100	-0.116853714
249	0xbe8c6f40	-0.27428627
250	0x3e8054f7	0.25064823
251	0xbe8b033a	-0.271509
252	0xbd56f71a	-0.05248175
253	0xbe310ca3	-0.17289977
254	0x3db21a5d	0.08696435
255	0xbd17f849	-0.037102018

linear2.weight f4 [3, 256]
0	0xbe247499	-0.16060103
1	0xbd2818b7	-0.041039195
2	0x3dddb0ea	0.10824759
3	0xbd01c537	-0.03168222
4	0x3e1fb0fa	0.15594855
5	0xbe98bfb3	-0.29833755
6	0x3e221b95	0.15830834
7	0x3d717f04	0.058959022
8	0xbea95cb2	-0.33078533
9	0xbe195f34	-0.14977723
10	0x3a4bb413	0.00077706686
11	0xbdca638a	-0.09882267
12	0xbdd1f691	-0.10252107
13	0x3c770438	0.015076689
14	0xbd05a228	-0.032625347
15	0xbe2cc069	-0.16870274
16	0x3e32d828	0.1746527
17	0x3dfaaf68	0.12240487
18	0xbdb56c41	-0.088585384
19	0xbd7e8541	-0.0621388
20	0xbe232a80	-0.15934181
21	0x3e1b81e1	0.15186264
22	0xbdff434a	-0.12464006
23	0x3d48d8ca	0.04903487
24	0x3cf31693	0.02967385
25	0xbce586dd	-0.02801841
26	0xbde49037	-0.11160319
27	0xbcf16fb5	-0.029472211
28	0xbe0da70f	-0.13833259
29	0x3e15bc6b	0.14622657
30	0x3df54d02	0.11977579
31	0x3e2c352b	0.16817157
32	0xbe44b0bf	-0.19208048
33	0x3e14c6b7	0.14528929
34	0x3df260fd	0.11834905
35	0xbd529619	-0.051412676
36	0x3dfcaacd	0.12337265
37	0xbdc06da6	-0.09395914
38	0xbdc47f37	-0.09594577
39	0x3e101682	0.14071086
40	0x3c134a79	0.008989924
41	0xbe87043d	-0.2637042
42	0x3dbbc743	0.091688655
43	0xbd4b34d1	-0.049610917
44	0xbde55176	-0.11197178
45	0x3d8af8d5	0.06785742
46	0x3dc676f0	0.09690654
47	0xbe048fc1	-0.12945463
48	0x3e4379cb	0.19089429
49	0xbe076e7d	-0.13225742
50	0xbd50486c	-0.050850317
51	0xbeafd6d1	-0.3434358
52	0xbe0e8656	-0.13918433
53	0xbd3a0981	-0.04541922
54	0x3e0b2e65	0.13591917
55	0x3d410f84	0.047133937
56	0xbdd0ba97	-0.10191839
57	0xbb1a0d35	-0.0023506407
58	0x3e14b07f	0.14520453
59	0xbcb05a08	-0.021527305
60	0xbbc56cc1	-0.0060249274
61	0xbdc91e41	-0.098202236
62	0x3d7142d7	0.058901634
63	0xbdba2461	-0.0908897
64	0x3c648b40	0.013949215
65	0xbe29a3ea	-0.16566435
66	0xbe05b483	-0.13057141
67	0xbd08c956	-0.033395134
68	0xbe3b4a3c	-0.18290037
69	0x3e3aa508	0.18227017
70	0x3e96affd	0.29431143
71	0xbe0b0782	-0.13577083
72	0xbe6973fb	-0.2279815
73	0xbb340383	-0.0027467913
74	0xbe64b690	-0.22335267
75	0x3d692d14	0.056927755
76	0xbe028688	-0.12746632
77	0x3b780d0a	0.0037849569
78	0xbed0533f	-0.40688512
79	0xbe1a99c5	-0.15097721
80	0xbe47750e	-0.19478247
81	0xbdcda9b4	-0.10042134
82	0x3d486879	0.048927758
83	0xbcf2c140	-0.029633164
84	0xbd90221e	-0.07037757
85	0xbe7011cc	-0.23444289
86	0x3d8fb48c	0.070168585
87	0xbe26ffdc	-0.1630854
88	0xbc2e27b8	-0.010629587
89	0xbe29c8b8	-0.16580474
90	0xbd31ba2e	-0.043390445
91	0xbd2d8968	-0.04236737
92	0xbe639190	-0.22223496
93	0xbdfe31a3	-0.12411811
94	0x3da62c35	0.081139006
95	0xbddc8d0e	-0.107690915
96	0xbeae73e4	-0.34072793
97	0xbe65e5d6	-0.22450957
98	0x3dd24267	0.102665715
99	0x3e5672ae	0.20942184
100	0xbe7576f2	-0.23971155
101	0xbcb80921	-0.02246529
102	0x3dea83c5	0.11450914
103	0x3d4f0b7d	0.050548065
104	0xbc59af21	-0.013286383
105	0xbe08e8dd	-0.1337008
106	0x3b97abbb	0.004628626
107	0xbe070d64	-0.13188702
108	0x3e3437c6	0.17599401
109	0xbb304741	-0.002689794
110	0xbe946e70	-0.28990507
111	0x3d80a522	0.062814966
112	0xbe0a7313	-0.1352046
113	0xbe055210	-0.13019586
114	0x3e2bc245	0.16773327
115	0xbe03886d	-0.12845011
116	0xbe7dbdbd	-0.2477941
117	0xbe139497	-0.14412151
118	0xbe47cbe3	-0.1951137
119	0x3e0e1da5	0.13878496
120	0xbd052674	-0.032507375
121	0xbdc35b3f	-0.09538888
122	0xbdbf677a	-0.093459085
123	0xbe2f0fe0	-0.170959
124	0xbd06c5d8	-0.032903522
125	0xbdefd084	-0.11709693
126	0xbd02975b	-0.031882625
127	0xbddcac4c	-0.107750505
128	0xbd673829	-0.056450043
129	0x3e8b4c5f	0.27206704
130	0x3d4eb20e	0.050462775
131	0xbe04aa61	-0.1295562
132	0x3d5ad319	0.053423975
133	0xbdaba351	-0.083807595
134	0xbcce1ca1	-0.025160136
135	0xbe132038	-0.14367759
136	0xbe34f85b	-0.17672865
137	0x3dbe4ade	0.092916235
138	0xbe8a7371	-0.270412
139	0xbe215bc6	-0.15757665
140	0xbca175c8	-0.019709483
141	0xbda51c6c	-0.08062062
142	0x3d4155f2	0.047201104
143	0xbc81cf1e	-0.015845831
144	0xbe7694c3	-0.24080186
145	0xbda43400	-0.08017731
146	0xbe72df15	-0.23717912
147	0x3e0d771a	0.13814965
148	0x3e1332a8	0.14374793
149	0x3d888e27	0.066677384
150	0x3c63f968	0.013914444
151	0x3e806fa7	0.25085184
152	0xbdd62a70	-0.10457313
153	0xbd8d12a0	-0.06888318
154	0xbd3472d1	-0.04405481
155	0x3e44d9f7	0.19223772
156	0xbdfa87e4	-0.1223295
157	0xbc6f5be7	-0.014609314
158	0xbdafb32e	-0.08579098
159	0xbe22f155	-0.15912373
160	0xbe1e5a22	-0.1546407
161	0xbc31557c	-0.010823604
162	0x3d511992	0.051049776
163	0xbd9e5811	-0.07731641
164	0xbde4a85d	-0.11164925
165	0x3dbfd56d	0.093668796
166	0x3cfdedc1	0.030997159
167	0xbd100767	-0.03516331
168	0x3e45df1e	0.19323394
169	0x3e59f789	0.21285833
170	0xbe8ac904	-0.27106488
171	0xbd08386e	-0.03325694
172	0xbe76b006	-0.24090585
173	0xbeab4888	-0.33453774
174	0xbd103563	-0.035207164
175	0x3e1cad6a	0.15300527
176	0x3c49e517	0.012322686
177	0x3dcbc570	0.099497676
178	0xbe1f2282	-0.15540507
179	0x3bef3ec0	0.0073011816
180	0xbdc9e74c	-0.098585695
181	0xbe2cc863	-0.16873316
182	0x3e256a31	0.1615379
183	0xbe88b465	-0.2670013
184	0xbeb2fc59	-0.3495815
185	0xbcc79784	-0.02436424
186	0x3e2a1cba	0.16612521
187	0xbba72370	-0.00510066
188	0xbe2bba2e	-0.1677024
189	0xbe2e9363	-0.17048411
190	0xbe878289	-0.26466778
191	0xbda87450	-0.0822531
192	0xbe4d5a63	-0.20054011
193	0x3e7b218b	0.24524514
194	0xbce3f8cd	-0.027828598
195	0xbe2e6647	-0.17031203
196	0x3e18b700	0.14913559
197	0x3cfb327f	0.030663727
198	0x3e5d7fbd	0.2163076
199	0x3c98a45f	0.018633066
200	0xbe0e86a7	-0.13918553
201	0x3d401ed3	0.046904396
202	0x3e45b799	0.19308318
203	0xbe56311d	-0.20917173
204	0x3e202c1e	0.1564183
205	0x3dee55fb	0.11637493
206	0x3e719416	0.23591647
207	0xbe3cf759	-0.1845373
208	0xbc9796fd	-0.018504614
209	0x3d87407d	0.06604097
210	0x3df52825	0.119705476
211	0xbd992c2c	-0.07479128
212	0xbd70f57e	-0.05882787
213	0x3dbe6c21	0.09297968
214	0xbd3690ab	-0.04457156
215	0x3e799d51	0.24376418
216	0x3e0c4cf3	0.13701229
217	0xbe822aa3	-0.25423154
218	0x3e1ccf74	0.15313512
219	0x3b171919	0.002305573
220	0x3e529f5b	0.20568602
221	0xbe474599	-0.19460143
222	0x3dcf7cf4	0.10131255
223	0xbe1aa6bb	-0.15102665
224	0xbd21fc19	-0.03954706
225	0x3d036133	0.03207512
226	0xbd785c6c	-0.060635015
227	0xbd491697	-0.04909381
228	0xbcfb1061	-0.030647459
229	0xbd9fbc22	-0.07799555
230	0xbd714172	-0.058900304
231	0x3e66a0d0	0.22522283
232	0xbc93e1a2	-0.018051926
233	0xbe37210a	-0.17883697
234	0x3e3de3fc	0.18544
235	0x3dcc992c	0.09990153
236	0x3e2935c0	0.1652441
237	0xbe7595c8	-0.23982918
238	0xbe1de959	-0.15421046
239	0xbcf45f4d	-0.0298306
240	0x3dbb81c6	0.09155612
241	0xbbd867cf	-0.006604172
242	0x3de528eb	0.11189445
243	0xbe0cc781	-0.1374798
244	0x3d053954	0.032525375
245	0xbe2cffe6	-0.16894493
246	0x3d8797d8	0.06620759
247	0x3e749a72	0.23887041
248	0x3e89ff6e	0.2695269
249	0xbd82d96f	-0.063891284
250	0xbce620cf	-0.028091816
251	0x3d28958b	0.04115824
252	0x3d3c8771	0.046027604
253	0xbc183a16	-0.0092911925
254	0xbe2896da	-0.16463795
255	0xbe9a214c	-0.30103528

linear2.bias f4 [3]
0	0x3d222ce0	0.039593577
1	0xbd24da13	-0.040247034
2	0xbd6dc846	-0.058052324
