model/model.pth (torch, 16799 bytes, 4 tensors)

linear1.weight f4 [256, 11]
0	0x3e0ab365	0.13544996
1	0xbe9bb2e3	-0.30409917
2	0x3c0aaa76	0.008463493
3	0xbde0dc23	-0.10979488
4	0x3d646b34	0.0557663
5	0x3dc1b408	0.09458166
6	0xbe92bf68	-0.28661656
7	0xbe7486fa	-0.23879614
8	0x3e6cebc3	0.23136811
9	0xbe84cb52	-0.2593637
10	0xbe3411f9	-0.17584981
11	0x3e5f9a40	0.21836185
12	0xbe8596f3	-0.26091728
13	0x3d853796	0.06504743
14	0xbd3e2063	-0.046417605
15	0x3e83e6bf	0.25761983
16	0xbe22dd55	-0.15904744
17	0x3c9ad951	0.018902453
18	0x3dbf490d	0.09340105
19	0x3d6320ef	0.05545133
20	0x3dc02ab6	0.093831465
21	0x3cbd314f	0.023094801
22	0x3e43e725	0.19131143
23	0xbe86daf8	-0.26338935
24	0xbe2555d4	-0.16146022
25	0xbc35039c	-0.011048224
26	0xbcc85783	-0.024455791
27	0x3e12fee9	0.14355053
28	0x3d7d61f3	0.06186099
29	0xbdc6b448	-0.09702355
30	0x3e340baa	0.17582574
31	0x3ea5a767	0.3235428
32	0x3e5fa94a	0.21841922
33	0xbdc336ac	-0.09531912
34	0xbe89f83a	-0.26947194
35	0xbe7d97bb	-0.24764912
36	0x3e474e95	0.1946357
37	0xbc3f49f8	-0.01167535
38	0xbd82cdc5	-0.06386904
39	0xbe599917	-0.21249805
40	0x3e7ca070	0.24670577
41	0xbe846d35	-0.25864568
42	0x3e807f5e	0.25097173
43	0xbe791d27	-0.24327527
44	0xbcf47d37	-0.029844863
45	0x3dec88d5	0.11549536
46	0xbe1af8b4	-0.15133935
47	0x3d3d0d93	0.046155524
48	0x3e4d9d8b	0.20079629
49	0xbe8fec00	-0.2810974
50	0x3e1a7139	0.15082254
51	0xbea41522	-0.32047373
52	0xbe22fad4	-0.15915996
53	0x3e14d57c	0.14534563
54	0xbe335581	-0.17513086
55	0xbe6bcd7a	-0.23027602
56	0x3d5fae10	0.05460936
57	0x3dd48cfc	0.10378453
58	0x3e88ac94	0.26694167
59	0x3e5b3e94	0.2141059
60	0xbe5f85d7	-0.218284
61	0xbe8d7b14	-0.27632964
62	0x3c7e18fe	0.015508888
63	0xbd5890d2	-0.052872486
64	0xbd4df322	-0.050280698
65	0xbe3ca08f	-0.18420623
66	0x3e284814	0.16433746
67	0xbe7b89d7	-0.245643
68	0x3e8d493b	0.27594933
69	0xbeb0dd23	-0.34543714
70	0x3e808ded	0.2510828
71	0xbd4fa7c4	-0.050697103
72	0x3cc830c8	0.024437323
73	0xbdc7e33c	-0.097601384
74	0x3e721685	0.23641403
75	0xbe2c437c	-0.16822618
76	0x3e20b7de	0.1569514
77	0x3dd9210c	0.10602006
78	0xbdc842c9	-0.09778363
79	0xbe47ec7c	-0.19523805
80	0xbe4f4739	-0.20242013
81	0xbdf8d029	-0.121490784
82	0xbe8090a7	-0.2511036
83	0xbe0dbe9f	-0.13842247
84	0xbe13303e	-0.14373872
85	0x3e2a3566	0.16621932
86	0x3e840016	0.25781316
87	0xbdac816b	-0.08423122
88	0x3e29f62a	0.1659781
89	0xbd59d7b1	-0.053184215
90	0xbe4c3ed8	-0.19945848
91	0x3e182ff5	0.14862044
92	0xbeac8688	-0.3369639
93	0x3e59e383	0.21278195
94	0x3eb0434b	0.3442634
95	0xbdef5683	-0.11686423
96	0xbdd3ca6b	-0.103413425
97	0x3e3dc8bf	0.1853361
98	0xbddeaa12	-0.10872282
99	0x3e460bf0	0.19340491
100	0xbe351de6	-0.17687187
101	0x3c729101	0.014805079
102	0x3e18f61c	0.14937633
103	0x3e17107e	0.14752385
104	0xbb50e6af	-0.003187578
105	0x3e3c31fa	0.1837844
106	0xbe5dbdf5	-0.21654494
107	0x3dbbe71f	0.09174942
108	0x3c9845c1	0.018587949
109	0xbe66291a	-0.22476617
110	0xbda650ba	-0.08120866
111	0x3d281b26	0.041041516
112	0xbde523c1	-0.1118846
113	0xbe712a23	-0.2355123
114	0xbe51287b	-0.20425598
115	0xbe8db472	-0.2767673
116	0x3e604d5f	0.21904515
117	0xbe608964	-0.2192741
118	0x3da797a1	0.08183218
119	0x3e856652	0.26054627
120	0xbe80bf0e	-0.25145763
121	0xbdf50d0c	-0.11965379
122	0xbe84d0d3	-0.2594057
123	0x3e34244d	0.17591973
124	0xbde9d610	-0.11417782
125	0x3df45eaa	0.11932118
126	0xbe120c7d	-0.14262576
127	0x3e512361	0.20423652
128	0xbe846bbe	-0.2586345
129	0x3e62fec5	0.221675
130	0x3db2fd01	0.08739663
131	0x3e313905	0.17306907
132	0xbe2b373c	-0.16720289
133	0xbe612fc6	-0.2199088
134	0x3e4c6025	0.19958551
135	0xbe6eb9b9	-0.23313035
136	0x3e242c3c	0.16032499
137	0x3e25d9cf	0.16196369
138	0x3e0ee9c2	0.13956359
139	0x3e49a773	0.19692783
140	0x3d7c50b4	0.061600402
141	0xbd3f9836	-0.04677602
142	0xbdf6db37	-0.12053531
143	0xbe722354	-0.23646289
144	0xbe90de31	-0.2829452
145	0x3e56ce49	0.20977129
146	0x3e66ace2	0.22526887
147	0xbe635707	-0.22201167
148	0x3cfc988d	0.03083446
149	0x3e2e9a10	0.17050958
150	0x3d98718b	0.074435316
151	0xbd4b149a	-0.049580194
152	0x3e832d0f	0.25620314
153	0x3decfb2d	0.115713455
154	0x3ea9a590	0.33134127
155	0x3e224d16	0.15849718
156	0x3e4d2813	0.20034818
157	0x3d753de0	0.05987346
158	0x3e97d483	0.2965432
159	0x3eaaa53e	0.33329195
160	0xbc9840aa	-0.018585522
161	0x3df966a1	0.12177778
162	0x3e9636fd	0.29338828
163	0x3cab9616	0.02094559
164	0xbc664f36	-0.014056971
165	0x3ca413cb	0.02002897
166	0x3e51ff04	0.20507437
167	0x3eba5c71	0.36398652
168	0x3e65ddc5	0.2244788
169	0xbe2d849a	-0.16945115
170	0xbd09711b	-0.03355513
171	0xbdd49144	-0.1037927
172	0x3d22ca34	0.039743617
173	0x3e0d4bbc	0.13798422
174	0x3e045b70	0.12925506
175	0x3e925bcd	0.28585663
176	0xbde7189e	-0.11283992
177	0xbdd76db6	-0.105189726
178	0x3dc9f580	0.098612785
179	0x3e307e31	0.17235638
180	0x3e9c7ba1	0.3056307
181	0x3bae2776	0.0053147627
182	0x3d7a609c	0.06112729
183	0x3d4569eb	0.048196714
184	0x3e3bb787	0.18331729
185	0xbd0159f9	-0.031579945
186	0xbce65f89	-0.028121727
187	0xbe6d4578	-0.23171031
188	0x3e28c62f	0.16481851
189	0x3e3a7392	0.18208149
190	0xbe46a831	-0.19400097
191	0xbe85c9b8	-0.26130462
192	0xbcc61797	-0.02418117
193	0xbb8549ec	-0.00406765
194	0xbd8fd9d7	-0.070239715
195	0xbe0f05b4	-0.1396702
196	0xbd386a15	-0.045023043
197	0x3e82d1c8	0.25550675
198	0xbd33bf8a	-0.043883838
199	0x3e9aac20	0.30209446
200	0xbe192fde	-0.14959666
201	0x3e6e40ea	0.2326695
202	0x3d9ae9a8	0.07564098
203	0xbd669d61	-0.056302432
204	0xbdf12a50	-0.117756486
205	0xbe7c696c	-0.2464959
206	0xbe64d514	-0.22346908
207	0x3e2ed90d	0.17074986
208	0xbce5368d	-0.027980113
209	0xbe2b498d	-0.16727276
210	0x3d7a9898	0.06118068
211	0x3ce30d56	0.02771632
212	0x3e455ad7	0.19272934
213	0xbbdda8c5	-0.0067645037
214	0xbe22b618	-0.15889776
215	0xbe9211c0	-0.28529167
216	0x3e29f5c9	0.16597666
217	0x3e450ed6	0.1924394
218	0x3daa23fa	0.08307643
219	0xbe4addeb	-0.19811217
220	0xbe11a608	-0.14223492
221	0x3da7a97f	0.08186626
222	0xbe570ec7	-0.21001731
223	0xbe4ca93e	-0.19986436
224	0xbdb2c85e	-0.08729623
225	0x3d9b6786	0.07588105
226	0x3e60ef76	0.21966347
227	0x3e64dde5	0.22350271
228	0x3e7c66a5	0.24648531
229	0xbe12e330	-0.14344478
230	0xbdef203d	-0.11676071
231	0x3eb26b86	0.3484766
232	0xbdd4c5fe	-0.103893265
233	0x3e997769	0.29973915
234	0xbd4683fd	-0.048465718
235	0x3dfc714f	0.123262994
236	0x3e65a20f	0.22425102
237	0x3e68f0a8	0.22748053
238	0x3dbd52ec	0.09244332
239	0x3ddca22f	0.107731216
240	0x3e0344f2	0.1281927
241	0x3daeadd0	0.08529246
242	0x3dc0d1d6	0.09415023
243	0xbe891f9d	-0.26781932
244	0xbe1e5131	-0.1546066
245	0xbd9cbe48	-0.07653481
246	0x3d32dade	0.04366576
247	0xbe45a42d	-0.1930091
248	0xbe048197	-0.1294006
249	0xbdf948db	-0.12172099
250	0xbe601dac	-0.21886319
251	0x3e9cc94c	0.30622327
252	0x3d9c5f96	0.07635419
253	0x3e0409ff	0.12894438
254	0x3ea42034	0.3205582
255	0xbe623235	-0.22089465

linear1.bias f4 [256]
0	0x3e655ba8	0.22398245
1	0xbe33742c	-0.17524785
2	0xbe7d9397	-0.24763332
3	0x3da4e4fa	0.08051486
4	0xbd578325	-0.052615304
5	0x3db2a609	0.08723075
6	0xbddf3c50	-0.109001756
7	0x3e80dd6d	0.25168934
8	0x3e879f12	0.2648855
9	0xbdef89a5	-0.116961755
10	0x3e5e71bb	0.21723072
11	0xbe89047a	-0.26761228
12	0xbe8ace1f	-0.27110383
13	0x3d4bb2c3	0.049731027
14	0xbe17e033	-0.14831619
15	0x3e5128fd	0.20425792
16	0xbe68cc9f	-0.22734307
17	0xbe7be65a	-0.24599591
18	0x3cecb211	0.028893502
19	0xbe906de4	-0.2820884
20	0xbe729b83	-0.23692136
21	0x3e505e46	0.20348462
22	0xbe646b8a	-0.22306648
23	0x3daf1d35	0.08550493
24	0xbda60b8d	-0.08107672
25	0x3b45b4db	0.0030167613
26	0x3e79e591	0.24403979
27	0xbd45e57e	-0.048314564
28	0x3d5084a0	0.05090773
29	0x3dfbeb4d	0.123007394
30	0x3da05634	0.07828942
31	0xbe19e62d	-0.15029211
32	0x3eac6652	0.33671814
33	0xbd7eb375	-0.062182862
34	0xbdd182fc	-0.102300614
35	0x3d704fc7	0.05866983
36	0xbe705295	-0.23469003
37	0x3e9b41f9	0.3032377
38	0x3d90fe48	0.0707975
39	0x3e376090	0.1790793
40	0xbe813938	-0.25238967
41	0x3eaf8bb3	0.3428627
42	0x3d816644	0.06318334
43	0x3e0a5d6a	0.13512197
44	0x3eab396a	0.3344224
45	0xbe5270b4	-0.20550805
46	0x3c1252ab	0.008930842
47	0xbe4f2f69	-0.2023293
48	0x3eb6cb1b	0.35701832
49	0x3e4c8a8e	0.1997473
50	0x3e3c275f	0.18374394
51	0xbd915616	-0.07096498
52	0xbdcdfa96	-0.10057561
53	0x3cb9abeb	0.022664985
54	0xbe4f0e12	-0.20220211
55	0x3e811fd8	0.25219607
56	0xbe4eada5	-0.20183428
57	0xbd43621b	-0.047700983
58	0x3e5ef5e2	0.21773484
59	0x3e5441fc	0.20728296
60	0xbe0260ba	-0.12732211
61	0xbd8bf4ca	-0.06833799
62	0x3e41f6d5	0.18941815
63	0xbc3c6341	-0.011498273
64	0xbe91af47	-0.28454039
65	0x3c9f5ee2	0.019454423
66	0x3e800e45	0.25010887
67	0xbe6c6989	-0.23087133
68	0x3ea3888e	0.3194012
69	0xbde6829b	-0.1125538
70	0x3e40df4c	0.18835181
71	0xbe5bf177	-0.2147883
72	0xbe2a997f	-0.16660117
73	0xbe4ac85f	-0.19802998
74	0xbe15e02a	-0.14636293
75	0xbe8ca63e	-0.27470583
76	0xbe9cda05	-0.30635086
77	0x3e8cb202	0.2747956
78	0xbce71e4c	-0.028212689
79	0x3da5bcee	0.08092676
80	0xbe97df60	-0.2966261
81	0x3c7f73a8	0.015591539
82	0x3e4cbf62	0.19994882
83	0x3e6c50e9	0.2307774
84	0x3e94eb56	0.29085797
85	0xbe841f17	-0.2580497
86	0x3e528fd4	0.20562679
87	0x3cb31dea	0.02186485
88	0x3e806fea	0.25085384
89	0xbe8578c8	-0.2606871
90	0x3e25a44b	0.16175954
91	0x3b5b48d8	0.0033460166
92	0x3e5d2ab7	0.21598326
93	0xbd21e36d	-0.03952353
94	0x3c398aec	0.011324625
95	0xbe1707d2	-0.14749077
96	0x3e7a4231	0.24439313
97	0x3cb880c0	0.02252233
98	0x3e1aaf60	0.15105963
99	0xbe4be879	-0.199129
100	0x3d14a9e7	0.036294844
101	0xbe3e7949	-0.18600954
102	0xbe871538	-0.26383376
103	0xbd967a1b	-0.073475085
104	0xbdac9e72	-0.084286585
105	0x3e58712e	0.21136925
106	0x3e5d04a4	0.21583802
107	0xbe73e249	-0.2381679
108	0x3c8f8c57	0.017522974
109	0x3e7a0c3f	0.24418734
110	0x3ea93a21	0.3305216
111	0x3ded2f46	0.11581282
112	0x3e8299d0	0.25507975
113	0xbdaac966	-0.08339195
114	0xbe5818be	-0.21103188
115	0x3e4b4e4b	0.19854085
116	0x3db35b6c	0.08757672
117	0x3e0b060d	0.13576527
118	0xbe8a374d	-0.26995316
119	0xbe1d1f55	-0.15343983
120	0x3e2ea75f	0.17056035
121	0xbe871e93	-0.26390514
122	0x3eb0aa7d	0.34505072
123	0x3d11ae74	0.035566762
124	0x3e84cb79	0.25936487
125	0x3d8e7357	0.06955593
126	0xbea1bb2b	-0.3158811
127	0xbd659b17	-0.05605611
128	0xbe54d517	-0.20784412
129	0x3e74e701	0.23916246
130	0x3e0cbc8a	0.13743797
131	0xbe8d5f6e	-0.2761187
132	0x3ea9109e	0.3302049
133	0x3eabc043	0.33545122
134	0xbe6d7394	-0.23188621
135	0xbe0d3732	-0.13790587
136	0xbdb1d45e	-0.08683084
137	0xbd83123f	-0.063999645
138	0x3e32df70	0.17468047
139	0x3e1fa18b	0.15588968
140	0xbde59e27	-0.11211806
141	0x3d273c4e	0.040828995
142	0x3e272739	0.16323556
143	0x3dca373e	0.09873818
144	0x3d85893a	0.065203145
145	0x3e5fcea2	0.21856168
146	0xbe35aa7d	-0.17740817
147	0xbe10efcd	-0.14153977
148	0x3e9b468c	0.3032726
149	0xbd89ffb8	-0.067382276
150	0x3e207da6	0.15672931
151	0x3df9f5d5	0.12205092
152	0x3dcb73a7	0.09934168
153	0xbe8202fc	-0.25392902
154	0xbb96c436	-0.004601027
155	0x3bcc53f7	0.0062355953
156	0x3e18514d	0.14874764
157	0x3e36beac	0.17846173
158	0xbe38f3c3	-0.18061738
159	0x3cbfa9c5	0.023396382
160	0x3e86cacc	0.26326597
161	0x3e368f66	0.1782814
162	0xbde8e948	-0.1137262
163	0x3e29c7d3	0.16580133
164	0x3d4485a2	0.047979005
165	0xbccafee1	-0.024779739
166	0xbe5e48dc	-0.21707481
167	0x3e2c5c0d	0.1683199
168	0x3e766554	0.24062091
169	0x3e38cbb7	0.18046461
170	0xbcf9cc47	-0.030492915
171	0xbe0fa35e	-0.14027163
172	0xbe16bbe2	-0.14720109
173	0x3ccfc099	0.025360392
174	0x3da5e783	0.08100798
175	0x3e5fe4a4	0.21864563
176	0x3cbe28fb	0.0232129
177	0x3e4c905a	0.19976941
178	0x3ea58ae5	0.3233253
179	0x3e68c93d	0.22733016
180	0xbd5ccb92	-0.053905077
181	0x3dc73597	0.09727018
182	0x3e0ff8fe	0.14059827
183	0x3e5cc668	0.21560061
184	0xbe080b67	-0.132856
185	0x3ea8ada3	0.32944974
186	0xbea02509	-0.31278256
187	0x3d04a0ca	0.032379903
188	0xbe0fce27	-0.14043485
189	0x3d35a206	0.04434397
190	0x3bf1f240	0.007383615
191	0x3e5405e1	0.20705368
192	0xbd22aff0	-0.03971857
193	0x3983ed4a	0.0002516306
194	0x3dda8624	0.106701165
195	0xbe86581d	-0.262391
196	0xbc8fdd26	-0.017561506
197	0x3d94efad	0.07272277
198	0x3d8bd642	0.06827976
199	0xbd95593b	-0.0729241
200	0xbe5921be	-0.21204278
201	0xbe3bf517	-0.18355213
202	0xbe0bb02c	-0.13641423
203	0x3cfed86f	0.031109063
204	0x3e0b8760	0.1362586
205	0xbe6c8caf	-0.23100542
206	0xbcb85a07	-0.022503866
207	0xbe9bb60c	-0.30412328
208	0xbe5814e2	-0.21101716
209	0xbd616630	-0.055029094
210	0x3e73da3e	0.23813722
211	0xbc863075	-0.016380528
212	0x3e7cd66b	0.24691169
213	0x3d1e92e5	0.03871431
214	0xbd74bef3	-0.059752416
215	0xbe3fa4e1	-0.1871524
216	0x3d22f339	0.039782736
217	0xbcfaaebb	-0.030600896
218	0xbe5b9155	-0.21442159
219	0x3e34744f	0.17622493
220	0xbe67d48d	-0.22639675
221	0xbd1395ef	-0.03603166
222	0xbe638370	-0.22218108
223	0xbd5686f6	-0.052374803
224	0x3e049b98	0.1294998
225	0xbeb258a3	-0.3483325
226	0xbe7cfa6b	-0.24704902
227	0xbe845990	-0.2584958
228	0xbe8e13f8	-0.2774961
229	0x3c25fb89	0.010130771
230	0x3d42a39c	0.04751931
231	0xbdb6e763	-0.08930852
232	0x3d0c0264	0.034181967
233	0xbe5d3760	-0.21603155
234	0xbd86d2a1	-0.06583143
235	0xbdbf09c7	-0.09328037
236	0x3decedd1	0.115687974
237	0xbddf8074	-0.10913172
238	0xbe1259da	-0.14292088
239	0x3e5a6706	0.21328363
240	0xbdef7e30	-0.1169399
241	0x3dc91ae6	0.098195836
242	0x3dca5638	0.09879726
243	0xbe2a0281	-0.16602518
244	0xbe3eb546	-0.18623838
245	0x3e150cba	0.14555636
246	0x3e3ab487	0.18232928
247	0x3d5bdcf9	0.053677533
248	0xbd8c9161	-0.06863666
249	0x3e196ade	0.14982173
250	0x3e6625fd	0.22475429
251	0xbe06ca85	-0.13163193
252	0x3d869e65	0.0657318
253	0xbdb9c1a8	-0.0907014
254	0xbe34d794	-0.17660362
255	0xbe1da13e	-0.1539354

linear2.weight f4 [3, 256]
0	0x3c96fe12	0.018431697
1	0xbd870359	-0.065924354
2	0xbc9e7903	-0.019344812
3	0x3dcdd204	0.10049823
4	0xbccfb71d	-0.02535587
5	0x3dea8ec2	0.1145301
6	0xbd8ada46	-0.067799136
7	0xbd16af63	-0.036788356
8	0xbda4988d	-0.08036909
9	0x3c903e1f	0.017607747
10	0xbcd0ddd5	-0.025496403
11	0x3dbb2540	0.09137964
12	0xbc83bbee	-0.016080823
13	0x3cfa94ca	0.030588526
14	0xbdc4b3bb	-0.09604593
15	0xbc66a318	-0.0140769705
16	0xbd0fca81	-0.035105232
17	0xbcdd687d	-0.027027363
18	0x3db6fd41	0.08935023
19	0x3ce1a320	0.027543604
20	0x3de3bd68	0.11120111
21	0xbdaf833e	-0.08569954
22	0x3e068b71	0.1313913
23	0xbdb89555	-0.09012858
24	0xbd0050c0	-0.03132701
25	0x3cbad1ea	0.022805173
26	0x3ccd8cfa	0.025091637
27	0x3d1c76f6	0.038199387
28	0xbddb4171	-0.10705841
29	0xbcaaf0a9	-0.020866709
30	0xbd334d31	-0.043774787
31	0xbdaf1325	-0.085485734
32	0x3c4fe67b	0.012689228
33	0x3d3575bf	0.044301745
34	0x3d18dfbd	0.03732275
35	0xbc82263f	-0.015887378
36	0xbc611253	-0.013737279
37	0xbd8a363f	-0.06748628
38	0xbd37094c	-0.0446866
39	0xbd8478bb	-0.0646834
40	0xbc15d39f	-0.009144693
41	0xbd50ee10	-0.051008284
42	0xbda40cde	-0.08010267
43	0xbcda4f64	-0.026649185
44	0xbd3e5c00	-0.046474457
45	0xbcac902f	-0.021064846
46	0x3d9f95b8	0.077922285
47	0x3be8507e	0.0070896735
48	0xbd47933b	-0.048724394
49	0xbdb34b5e	-0.087546095
50	0xbce74b56	-0.028234165
51	0x3d07a4c5	0.03311612
52	0x3c0d0631	0.008607433
53	0xbd98d378	-0.074622095
54	0x3cfc16ee	0.030772652
55	0xbd9ca756	-0.07649104
56	0xbd665f71	-0.056243364
57	0x3d9c822a	0.07642014
58	0xbc9c4d25	-0.019079754
59	0xbc129668	-0.008946992
60	0xbd9241c0	-0.07141447
61	0xbdc23258	-0.094822586
62	0xbdbb7d96	-0.09154813
63	0xbc05b202	-0.008160116
64	0x3d098186	0.03357079
65	0x3cfa0a1d	0.0305224
66	0xbb7e3efa	-0.0038794861
67	0x3e1f19d5	0.15537198
68	0xbd962cf4	-0.07332793
69	0x3ce569e9	0.028004603
70	0xbc9eeefa	-0.019401062
71	0xbdbfe0cf	-0.09369051
72	0xbdb4c967	-0.08827477
73	0x3d4f8e5d	0.050672878
74	0x3d3a5d3f	0.045499083
75	0xbdb80206	-0.08984761
76	0x3d254fce	0.04035931
77	0xbd605f8f	-0.05477863
78	0xbda535fb	-0.080669366
79	0x3c12c5d3	0.008958298
80	0xbd80e6bf	-0.06294011
81	0xbd8619d5	-0.06547896
82	0xbd2f6d9d	-0.042829145
83	0x3d09896c	0.03357832
84	0xbc0fbada	-0.008772576
85	0xbc7ae15a	-0.015312517
86	0xbdacf1aa	-0.08444531
87	0x3d5dc43f	0.054142233
88	0x3c7d0bd7	0.015444717
89	0xbd5540ef	-0.05206388
90	0xbd35113c	-0.04420589
91	0xbdd52928	-0.104082406
92	0x3da1b887	0.07896524
93	0xbbb52730	-0.005528353
94	0x3cf36aeb	0.029714068
95	0xbd241eb2	-0.040068336
96	0xbcbe1e13	-0.0232077
97	0xbd4333e0	-0.047656894
98	0xbd8908e5	-0.066911496
99	0xbd71de0a	-0.059049644
100	0x3d9e7f97	0.077391796
101	0xbcd167eb	-0.025562247
102	0xbc83e3fe	-0.016099926
103	0x3c8abee2	0.016936723
104	0xbd103c2b	-0.03521363
105	0xbda98a34	-0.08278313
106	0x3c5cd0e2	0.013477536
107	0xbd4c7c4a	-0.04992322
108	0x3d02458b	0.031804603
109	0xbd988a40	-0.07448244
110	0xbd77b121	-0.060471658
111	0xbda5d7d1	-0.08097804
112	0xbdafccbb	-0.08583971
113	0xbd64d9f7	-0.05587193
114	0x3d89d532	0.06730117
115	0xbdc20c64	-0.094750196
116	0xbddb98c4	-0.10722497
117	0xbd90ef5a	-0.07076903
118	0x3c5de7db	0.013544048
119	0x3bd4146d	0.0064721615
120	0x3cfc5f1e	0.030807074
121	0xbcf8ff79	-0.030395256
122	0xbd2d71d9	-0.0423449
123	0xbab6d66a	-0.0013949398
124	0xbda62364	-0.08112219
125	0xbc4cb4cd	-0.012494278
126	0xbba157ed	-0.0049238116
127	0x3d00e9b4	0.031472877
128	0x3cf488ef	0.029850451
129	0xbc82674c	-0.015918396
130	0x3cb1ab9a	0.021688271
131	0xbd4dcdf7	-0.05024525
132	0xbccd61f0	-0.025071114
133	0xbda42ca2	-0.080163255
134	0x39bdb15b	0.0003618103
135	0x3c25ad4f	0.010112121
136	0xbd44b8b4	-0.04802771
137	0x3cc7a2b0	0.024369568
138	0x3c803b69	0.015653329
139	0xbd7d13e2	-0.06178654
140	0x3bb1fa10	0.005431421
141	0xbd73cfba	-0.059524275
142	0xbd650106	-0.05590918
143	0x3d37cb48	0.0448716
144	0x3d10369c	0.03520833
145	0xbd9336f0	-0.07188213
146	0x3be7a9ee	0.0070698177
147	0xbda018c8	-0.07817227
148	0xbd4cb489	-0.04997686
149	0xbd32fa7b	-0.043695908
150	0x3d40bf25	0.04705729
151	0xbd61574b	-0.05501489
152	0xbd83b9c6	-0.06431918
153	0xbd19b291	-0.03752381
154	0xbd1851fb	-0.037187558
155	0xbd0871f3	-0.033311795
156	0x3c85ed58	0.016348526
157	0xbcfa7594	-0.030573644
158	0xbd33b235	-0.043871123
159	0x3c3841ec	0.011246186
160	0x3cb78b8a	0.022405405
161	0x3d65be82	0.056089886
162	0x3b2d99aa	0.0026489296
163	0xb9adfebd	-0.00033186926
164	0x3d02990f	0.03188425
165	0x3d15c103	0.036561023
166	0x3c222d43	0.009898487
167	0x3d91d48b	0.071206175
168	0xbd17b8af	-0.037041362
169	0xbd9c6516	-0.07636468
170	0xbc188dbd	-0.009311137
171	0xbdc84ff1	-0.097808726
172	0xbc20448c	-0.009781968
173	0x3d50d1fa	0.0509815
174	0xbd46b7eb	-0.04851524
175	0xbdc909eb	-0.09816345
176	0xbdb78735	-0.089613356
177	0xba3a38e1	-0.00071038125
178	0x3df00eb9	0.11721558
179	0xbd40ba45	-0.04705264
180	0x3ddfd255	0.109287895
181	0x3c15116c	0.009098392
182	0xbdbda3e0	-0.09259772
183	0xbd56380a	-0.052299537
184	0x3c0f3712	0.008741157
185	0xbdb7603e	-0.089539036
186	0x3d581dc2	0.052762754
187	0x3d4df042	0.050277956
188	0xbd117d10	-0.03551966
189	0x3d12d0d1	0.035843674
190	0xbbd4aec5	-0.0064905607
191	0x3c4587c9	0.0120562995
192	0xbb1727bf	-0.0023064462
193	0xbc13203b	-0.008979852
194	0xbd17121d	-0.03688251
195	0xbba9665f	-0.0051696743
196	0xbc888bb5	-0.01666818
197	0xbda14d3d	-0.0787606
198	0xbd8cba82	-0.06871511
199	0xbd5d4899	-0.054024313
200	0x3ca49629	0.020091133
201	0x3ca8f440	0.02062428
202	0x3d7cd60a	0.06172756
203	0x3cd9dd04	0.026594646
204	0xbc80bd53	-0.015715277
205	0x38457663	4.7078716e-05
206	0xbdce9f99	-0.100890346
207	0x3d5a9228	0.05336204
208	0xbd323c3e	-0.043514483
209	0x39d6a330	0.00040938845
210	0xbbfef12e	-0.0077802157
211	0xbd5f0115	-0.05444439
212	0xbd5bb7b2	-0.053641982
213	0x3c598258	0.013275705
214	0x3cc4a877	0.024006112
215	0xbc53163e	-0.012883721
216	0xbd97a56a	-0.07404597
217	0xbdddd2ec	-0.10831246
218	0xbd08326b	-0.033251207
219	0x3b0ac55d	0.0021174767
220	0x3d17cbaa	0.037059464
221	0xbd8d3c38	-0.068962514
222	0xbc8bdf3c	-0.01707422
223	0x3bf7013d	0.0075379894
224	0xbc9ac00d	-0.018890405
225	0xba06d762	-0.0005143789
226	0x3da73396	0.08164136
227	0xbcfd5db6	-0.030928474
228	0x3cd2ec15	0.025747338
229	0xbdac2e4d	-0.08407269
230	0x3b39345f	0.0028259975
231	0x3bf25642	0.0073955366
232	0xbd9ceb26	-0.076620385
233	0xbbac6133	-0.0052606105
234	0x3da0caf0	0.07851207
235	0xbd793a2e	-0.0608465
236	0xbc4707dd	-0.012147871
237	0x3d3cbb9e	0.046077363
238	0xbd8f1f19	-0.06988353
239	0xbcf91724	-0.030406542
240	0xbc12d2bd	-0.008961377
241	0xbdd54db1	-0.10415209
242	0x3c8e297d	0.017353768
243	0x3c80fff9	0.015747057
244	0x3dbad9ed	0.09123597
245	0xbd2d21e7	-0.04226866
246	0xbce90c2f	-0.028448192
247	0xbc69eae7	-0.0142771965
248	0xbc91fc87	-0.01782061
249	0xbcbd944a	-0.023141999
250	0xbd386091	-0.045013968
251	0x3cbc88c8	0.023014441
252	0xbcd3eadd	-0.025868827
253	0x3c84f746	0.01623119
254	0xbcec7d72	-0.02886841
255	0xbcb51cfb	-0.022108546

linear2.bias f4 [3]
0	0xbda2e0c4	-0.07953027
1	0xbd6db981	-0.05803824
2	0xbcdb4032	-0.02676401
