model/model.pth (torch, 16799 bytes, 4 tensors)

linear1.weight f4 [256, 11]
0	0x3dcc0c58	0.09963292
1	0x3c3da7b1	0.011575625
2	0xbcb9226b	-0.02259942
3	0xbb0e22fc	-0.0021688333
4	0x3e584f9e	0.21124122
5	0xbe95ee5c	-0.29283416
6	0xbf1c5056	-0.6106008
7	0xbe39799f	-0.18112801
8	0xbf0f44c2	-0.5596429
9	0x3e4143e8	0.1887356
10	0x3dc9ba91	0.09850038
11	0x3e1fb951	0.15598036
12	0xbdf4f3e6	-0.119605824
13	0x3ea3a16a	0.31959087
14	0xbd0eb37e	-0.034839146
15	0xbe60b0c9	-0.21942438
16	0xbd006aee	-0.031351976
17	0xbe14cb04	-0.1453057
18	0xbe4902e3	-0.19630007
19	0x3d104a3a	0.035227038
20	0xbe844189	-0.2583125
21	0xbdaa928f	-0.08328735
22	0x3e1837f4	0.14865094
23	0x3fb405fd	1.4064327
24	0x3e11cf9e	0.14239356
25	0xbe963826	-0.29339713
26	0xbf2993c0	-0.66241074
27	0xbe9db651	-0.3080316
28	0xbe7ec542	-0.24879935
29	0xbf26dd94	-0.6518185
30	0xbf1515c0	-0.5823631
31	0xbe4f3b95	-0.20237572
32	0x3e9e06ef	0.30864665
33	0xbe168e6e	-0.1470277
34	0x3e6e179b	0.23251192
35	0x3e3324f5	0.17494567
36	0xbe9c04be	-0.30472368
37	0x3f43e79e	0.76525295
38	0xbd479c70	-0.048733175
39	0xbe6a2c73	-0.22868519
40	0x3ecfafe6	0.40563887
41	0xbedf1b6c	-0.4357561
42	0xbfc58906	-1.5432441
43	0xbfbd0444	-1.4766927
44	0x3e18f0e7	0.14935647
45	0x3e83bcaf	0.25729892
46	0x3e970cd4	0.29501975
47	0xbd6209d3	-0.05518515
48	0xbf1e7e80	-0.61911774
49	0xbe5d4f8e	-0.21612379
50	0xbed7add8	-0.4212482
51	0xbe8540fd	-0.26026145
52	0x3e46adc5	0.19402225
53	0xbd555c2c	-0.052089855
54	0xbd76a74d	-0.060218144
55	0xbe2afa7d	-0.16697116
56	0x3e316d42	0.17326835
57	0x3e65ef95	0.22454675
58	0x3e93ad3d	0.28843108
59	0xbedfaaf4	-0.43685114
60	0x3e175d88	0.14781773
61	0xbeee7c1d	-0.46579066
62	0xbf406f3f	-0.7516975
63	0xbf89bf27	-1.076146
64	0xbebf6490	-0.3738141
65	0x3eaef4e6	0.34171218
66	0x3edcf08c	0.43152273
67	0x3ea1501f	0.3150644
68	0xbf96fbb0	-1.1795559
69	0x3f667b59	0.90031964
70	0xbf094eb0	-0.5363569
71	0x3d75fe5b	0.060057025
72	0x3f1af5ee	0.6053151
73	0xbf0f32d1	-0.55936915
74	0x3f1f73f7	0.62286323
75	0xbe5754d3	-0.21028452
76	0xbedb79b7	-0.428663
77	0x3bf40145	0.0074464404
78	0x3e037a5d	0.12839647
79	0xbe09fabe	-0.13474557
80	0x3cbb0fdd	0.022834713
81	0x3b668951	0.0035177062
82	0xbe1c72a1	-0.15278102
83	0xbe9771ca	-0.29579002
84	0x3d266091	0.040619437
85	0x3c273149	0.010204622
86	0xbcb26490	-0.021776468
87	0x3ca03a3b	0.019559016
88	0x3e146261	0.14490654
89	0x3ea900bb	0.3300837
90	0x3e6bdfef	0.23034643
91	0xbeba32e1	-0.36366943
92	0xbecba9e0	-0.39778042
93	0xbedb6e2a	-0.42857486
94	0xbf036991	-0.51332957
95	0x3e3ad3ff	0.18244933
96	0xbc9818a1	-0.018566431
97	0x39d770ed	0.00041092132
98	0xbe60ae5e	-0.21941516
99	0x3f765f77	0.9623942
100	0x3eb49caa	0.35275775
101	0x3f9bd991	1.2175771
102	0xbe76b74d	-0.24093361
103	0x3c42a91f	0.011881142
104	0x3ecd8635	0.40141454
105	0xbf79c2b2	-0.97562706
106	0xbf0f4569	-0.55965286
107	0x3e6ac24e	0.22925684
108	0xbdfebbfc	-0.12438199
109	0x3ef05eaf	0.46947238
110	0xbf771ede	-0.96531475
111	0xbd1ddd12	-0.038540907
112	0xbb9607d6	-0.004578571
113	0xbda2461e	-0.0792353
114	0x3d95f3b6	0.07321875
115	0xbf6f96e8	-0.9358964
116	0xbf394084	-0.7236407
117	0xbcf08f40	-0.029365182
118	0x3e3ded6e	0.18547603
119	0xbf633ac9	-0.88761574
120	0xbf6c35e3	-0.92269725
121	0x3f0aa09e	0.5415133
122	0xbf5333a4	-0.8250067
123	0x3f08f46b	0.5349795
124	0xbe79ff3e	-0.24413773
125	0xbe8e68fc	-0.27814472
126	0x3e66cdb7	0.22539411
127	0xbe650af1	-0.22367455
128	0x3e56eac2	0.2098799
129	0xbf50c426	-0.815493
130	0xbd9ac4c1	-0.07557059
131	0x3c9be648	0.019030705
132	0xbe5a48d1	-0.2131684
133	0x3e59eda1	0.21282054
134	0xbd362aac	-0.04447429
135	0xbe12cf7a	-0.14336959
136	0xbb840c07	-0.004029754
137	0xbe818c5e	-0.25302404
138	0xbdb07ee8	-0.086179554
139	0x3df7de27	0.12102919
140	0x3d96e0eb	0.073671184
141	0xbe883183	-0.26600274
142	0xbcf2f4c2	-0.029657725
143	0xbe6f1d7e	-0.23351094
144	0xbdc6a5ff	-0.0969963
145	0x3f079a44	0.52969766
146	0xbf76de71	-0.9643317
147	0xbf928bd4	-1.1448922
148	0xbfb07184	-1.3784642
149	0xbd853c74	-0.06505671
150	0x3e813f43	0.25243577
151	0xbf4e98bb	-0.807018
152	0xbec32817	-0.38116524
153	0xbfa2dece	-1.2724245
154	0x3f5d7294	0.8650296
155	0xbf8864f6	-1.0655811
156	0x3f2e9f1a	0.6821152
157	0x3f044a48	0.51675844
158	0x3e33af40	0.17547321
159	0x3e2a315b	0.1662039
160	0xbf2eddff	-0.6830749
161	0xbf4b910e	-0.7951821
162	0x3e056d44	0.13029963
163	0x3d962a9a	0.07332344
164	0x3dca507a	0.09878631
165	0xbeb9965e	-0.36247534
166	0xbe158eea	-0.14605299
167	0xbc20a734	-0.009805489
168	0xbe61459e	-0.21999213
169	0xbe70a3a8	-0.2349993
170	0xbea01370	-0.3126483
171	0xbde0c7e0	-0.10975623
172	0x3d508a56	0.050913177
173	0x3d9b660a	0.07587822
174	0xbea0f5b5	-0.3143746
175	0xbd8213f1	-0.0635146
176	0x3e351d75	0.17687018
177	0x3f41eeec	0.7575519
178	0xbfd5b9a9	-1.6697284
179	0xbf812bd7	-1.0091504
180	0x3f0c5214	0.5481274
181	0x3d4b0d8c	0.049573466
182	0x3c9de824	0.019275732
183	0xbef13149	-0.47107914
184	0x3ec9205e	0.39282507
185	0x3e0ff125	0.14056833
186	0xbef00a04	-0.4688264
187	0xbef86877	-0.485172
188	0xbe764fae	-0.24053833
189	0x3ee192e6	0.44057387
190	0x3ed7b328	0.42128873
191	0xbe9c86ef	-0.30571696
192	0xbec22d54	-0.37925208
193	0xbe148144	-0.14502436
194	0xbe04b37a	-0.1295909
195	0xbf2ebf1a	-0.6826035
196	0xbe821059	-0.25403097
197	0x3ea860f5	0.32886472
198	0x3deb0974	0.114764124
199	0x3e83db78	0.2575338
200	0xbf0cfd9f	-0.55074495
201	0xbe7020fa	-0.2345008
202	0xbe4a7d58	-0.19774377
203	0xbdf985bb	-0.1218371
204	0xbd14654a	-0.03622941
205	0x3e389e22	0.18029073
206	0x3dac0fa1	0.084014185
207	0xbe475da8	-0.19469321
208	0xbe36d093	-0.17853002
209	0xbea8dd51	-0.3298135
210	0x3f1d5da5	0.61471015
211	0x3f236024	0.63818574
212	0xbe7bc384	-0.24586302
213	0xbe60d10a	-0.21954742
214	0xbe5e9b90	-0.2173903
215	0x3ea87d46	0.32908076
216	0xbf018f1d	-0.50609
217	0x3e0eb10e	0.13934729
218	0xbecf5015	-0.40490785
219	0xbe0d5856	-0.13803229
220	0x3eafc709	0.3433154
221	0x3e31a225	0.1734701
222	0xbf124986	-0.5714344
223	0xbda23196	-0.07919614
224	0x3e1d2fb2	0.15350226
225	0x3d292e4a	0.04130391
226	0xbd4c8691	-0.04993302
227	0x3d3fae23	0.04679693
228	0xbda61621	-0.081096895
229	0x3ceb39fd	0.028714174
230	0x3c6252f6	0.013813725
231	0x3dc3869b	0.09547158
232	0xc003a721	-2.0570757
233	0xbf0fdb11	-0.56193644
234	0xbf6f6863	-0.93518656
235	0x3f95fa75	1.1717058
236	0xbed5fe66	-0.41795653
237	0x3ec00cdf	0.3750982
238	0xbfa7655c	-1.3077807
239	0x3f0c2cd3	0.54755896
240	0xbf9f9895	-1.2468439
241	0xbe0cbbd2	-0.13743523
242	0x3dc79116	0.0974447
243	0x3eb789db	0.35847363
244	0x3e04fd6b	0.12987296
245	0xbc75a976	-0.014994016
246	0xbf10802d	-0.5644558
247	0xbe9ab1d0	-0.30213785
248	0xbed5d2c8	-0.41762376
249	0xbe55428b	-0.20826165
250	0xbe2f6c77	-0.1713122
251	0xbe6fa656	-0.23403296
252	0x3c4b7c33	0.012419748
253	0xbe838219	-0.25685194
254	0x3c6f74e3	0.01461527
255	0xbdb197bc	-0.08671519

linear1.bias f4 [256]
0	0xbf04c6fa	-0.51866114
1	0xbef7e86f	-0.4841952
2	0x3e45079d	0.19241185
3	0xbf16ce22	-0.58908284
4	0xbf75ea29	-0.96060425
5	0xbd9253b7	-0.071448736
6	0xbf2046df	-0.6260814
7	0xbec263c4	-0.3796674
8	0xbf29b8d1	-0.6629763
9	0xbf011af9	-0.5043178
10	0xbe931fa2	-0.2873507
11	0xbf1cc277	-0.6123423
12	0xbeaa096d	-0.33210316
13	0x3e1d96fe	0.1538963
14	0xbeb60771	-0.35552552
15	0x3cff7f1d	0.031188542
16	0x3e927495	0.2860457
17	0xbf286ad2	-0.65787995
18	0xbf05cbd3	-0.52264136
19	0xbe9c4b02	-0.30525976
20	0xbf4be4bc	-0.79645896
21	0x3f0e4790	0.55577946
22	0xbf2bf3ae	-0.671687
23	0xbe6aa7b7	-0.2291554
24	0xbf152d9e	-0.5827273
25	0x3ebf9b69	0.37423256
26	0xbf0fc6bb	-0.56162614
27	0xbe5a8ac4	-0.21341997
28	0xbf31de3e	-0.6947974
29	0xbf0e5fcf	-0.5561494
30	0x3e20b3a4	0.15693527
31	0xbefb7895	-0.49115434
32	0xbf0bc002	-0.54589856
33	0xbe8fc204	-0.2807771
34	0xbf2285f7	-0.63485664
35	0xbe4b7e85	-0.19872482
36	0xbe8106e3	-0.25200567
37	0xbe2c3b7b	-0.16819565
38	0xbec4b65c	-0.3842038
39	0xbe99e535	-0.30057684
40	0xbf155f6c	-0.5834873
41	0x3e1b031c	0.15137905
42	0xbef4a976	-0.47785538
43	0xbeb18c0e	-0.34677166
44	0xbf1a9fa5	-0.6039985
45	0xbf2044bd	-0.62604886
46	0xbf102491	-0.56305796
47	0xbe8a2067	-0.26977846
48	0xbf6f0b64	-0.93376756
49	0xbecef815	-0.40423647
50	0xbeb6b628	-0.3568585
51	0xbf49d618	-0.78842306
52	0x3c961063	0.01831836
53	0xbf2a42c6	-0.6650814
54	0xbec07b31	-0.37593988
55	0xbf18df2d	-0.5971554
56	0x3e77cc9a	0.24199143
57	0xbe985e55	-0.2975947
58	0xbef0b243	-0.47011003
59	0xbe4b1408	-0.1983186
60	0xbec9ab04	-0.39388287
61	0xbf016335	-0.50542
62	0xbea4d819	-0.3219612
63	0xbeea657e	-0.45780557
64	0xbf0a9ef7	-0.5414881
65	0xbdc979b4	-0.09837666
66	0xbe302cf2	-0.17204645
67	0xbf575661	-0.8411618
68	0xbf196a8e	-0.59928215
69	0x3eda6a7a	0.4265936
70	0x3d5c8222	0.05383504
71	0xbeac8c08	-0.33700585
72	0x3e76e1df	0.241096
73	0xbf2f45e3	-0.68466014
74	0xbebcb229	-0.36854675
75	0x3dbbfe4e	0.09179364
76	0xbf79b438	-0.97540617
77	0xbf77dca9	-0.96821076
78	0x3e9af303	0.30263528
79	0xbf92089e	-1.140888
80	0xbee08f2c	-0.4385923
81	0xbe2026ec	-0.15639848
82	0xbf133d55	-0.5751546
83	0xbeb37087	-0.3504679
84	0xbe80ff40	-0.2519474
85	0xbfad98e0	-1.3562279
86	0xbf2c97d3	-0.67419165
87	0x3ea0893c	0.31354702
88	0xbef09249	-0.46986607
89	0xbeb8e27e	-0.361103
90	0x3eb9edfa	0.36314374
91	0xbdb2643b	-0.08710524
92	0xbe40dd38	-0.18834388
93	0xbe31a3bc	-0.17347616
94	0x3fa0dcbe	1.2567365
95	0xbf748dcc	-0.95528865
96	0xbf2c68f2	-0.67347634
97	0xbe8aa67e	-0.27080148
98	0xbede3351	-0.43398526
99	0x3e375555	0.17903645
100	0xbef26d1f	-0.47348878
101	0xbeb4defc	-0.35326374
102	0xbf097f9d	-0.5371035
103	0xbdccbbaa	-0.099967316
104	0xbf071036	-0.5275911
105	0xbe81751c	-0.2528466
106	0xbeb29cf2	-0.34885365
107	0x3dd93195	0.1060516
108	0xbf114232	-0.5674163
109	0x3d828b33	0.063742064
110	0xbea1f06c	-0.3162874
111	0xbf59e23a	-0.8511082
112	0xbf71e90a	-0.94496214
113	0xbe733f10	-0.23754525
114	0x3eae48fc	0.34040058
115	0xbecb5ea0	-0.3972063
116	0xbdff95e0	-0.12479758
117	0xbe8a2a09	-0.26985195
118	0xbf9d716e	-1.2300241
119	0xbef37cc5	-0.4755613
120	0xbea63070	-0.3245883
121	0xbedccf8e	-0.43127102
122	0x3f0fdce1	0.5619641
123	0xbd6e2d2b	-0.058148544
124	0xbcede9e7	-0.029042197
125	0xbdc531a3	-0.09628608
126	0xbea6ea2c	-0.32600534
127	0xbe96672f	-0.29375598
128	0xbe40019c	-0.18750614
129	0x3d454464	0.048160926
130	0xbeb91f62	-0.36156756
131	0xbe93d96e	-0.28876823
132	0xbecafd2b	-0.39646277
133	0xbf59b954	-0.85048413
134	0xbf1ef57f	-0.6209335
135	0xbe459b99	-0.19297637
136	0xbe2eebbd	-0.17082115
137	0xbf3b9d00	-0.7328644
138	0xbd8bf744	-0.068342716
139	0xbf52e93c	-0.8238714
140	0xbe51793b	-0.20456402
141	0xbea255d9	-0.31706122
142	0xbef503d7	-0.47854492
143	0x3df2eee8	0.11861974
144	0xbf1c524b	-0.6106307
145	0xbf283cca	-0.65717757
146	0xbe9d67e2	-0.3074332
147	0xbebd047f	-0.36917493
148	0xbf9d4a0c	-1.2288222
149	0xbead8304	-0.3388902
150	0xbf172cc4	-0.5905268
151	0xbf09fe84	-0.53903985
152	0xbe3e2778	-0.18569744
153	0x3f9dd512	1.2330649
154	0x3e114def	0.14189886
155	0xbf487da3	-0.78316706
156	0xbef7a679	-0.48369196
157	0xbe301c31	-0.17198254
158	0x3e374f60	0.17901373
159	0x3f135239	0.57547337
160	0xbf0302a4	-0.51175904
161	0xbe8c6f66	-0.2742874
162	0xbf1bc2db	-0.608442
163	0xbe9624d2	-0.29324967
164	0xbf0577c7	-0.5213589
165	0xbf09d121	-0.5383473
166	0x3d82c15c	0.063845366
167	0xbf2e88e6	-0.6817764
168	0xbf2e39ae	-0.6805676
169	0xbf949137	-1.1606816
170	0xbea1e4a0	-0.3161974
171	0xbf890804	-1.0705571
172	0xbeb7c5ce	-0.358931
173	0x3f1655a5	0.58724433
174	0xbef7c782	-0.483944
175	0x3f0ac0e7	0.54200596
176	0xbdcde1bd	-0.10052822
177	0xbe86e382	-0.2634545
178	0xbe200b3b	-0.15629284
179	0xbe9304b4	-0.28714526
180	0xbf5767aa	-0.84142554
181	0x3e6945cd	0.22780533
182	0xbf1628d5	-0.58656055
183	0xbeaf9836	-0.34295815
184	0xbe5113b8	-0.20417678
185	0xbf3b3c2b	-0.73138684
186	0xbf3aa456	-0.72907007
187	0xbeda7c59	-0.42672995
188	0xbb057340	-0.0020362884
189	0x3db06bfd	0.08614347
190	0xbf13c050	-0.5771532
191	0x3e338f2b	0.17535083
192	0xbf5521bc	-0.832546
193	0xbe416b91	-0.1888869
194	0x3df6a5b2	0.120433226
195	0xbea35870	-0.3190341
196	0xbe3e6923	-0.18594794
197	0xbe8b6f67	-0.2723343
198	0xbf40cd8c	-0.7531364
199	0xbfa14f03	-1.2602237
200	0x3ee34e77	0.443958
201	0x3e93c961	0.28864577
202	0xbedc2229	-0.42994812
203	0x3f2bae23	0.67062587
204	0xbe665e23	-0.22496848
205	0x3f8d78fe	1.1052549
206	0xbf5486fb	-0.83018464
207	0xbea64b96	-0.32479542
208	0xbef84f20	-0.48497868
209	0xbf1c9cd2	-0.6117679
210	0xbf281fd3	-0.6567356
211	0x3f58bb0a	0.846604
212	0xbeec67a7	-0.4617283
213	0xbf44ad81	-0.76827246
214	0x3fcc8185	1.5977026
215	0x3e9fe1d9	0.31226996
216	0x3f586184	0.845238
217	0xbfa94937	-1.3225468
218	0x3d420bf2	0.047374673
219	0xbf4940d9	-0.78614575
220	0xbf008d5e	-0.5021571
221	0xbf0c676a	-0.548453
222	0xbf2473d8	-0.64239264
223	0xbee21d48	-0.44162965
224	0xbf192b93	-0.59832114
225	0xbf6da59c	-0.92830825
226	0xbf6318eb	-0.88709897
227	0x3f8e3764	1.1110654
228	0xbf501c11	-0.81292826
229	0xbf57edc5	-0.8434718
230	0xbce24adc	-0.027623586
231	0xbec333d8	-0.3812549
232	0xbe97d8fc	-0.29657733
233	0xbea7f310	-0.3280263
234	0xbec51e6c	-0.38499773
235	0xbf1c00ab	-0.6093852
236	0x3df53008	0.11972052
237	0xbf20f091	-0.62867075
238	0x3da5d98a	0.08098133
239	0x3f1a1a97	0.6019682
240	0xbeaf2432	-0.34207302
241	0xbf1876d4	-0.5955632
242	0xbf0d3bb6	-0.55169237
243	0x3e275b23	0.1634336
244	0xbf383478	-0.7195506
245	0xbf2383fe	-0.6387328
246	0xbec21550	-0.37906885
247	0xbeef4b4b	-0.4673713
248	0xbdfc57f3	-0.123214625
249	0xbf27a32f	-0.65483373
250	0xbe799ac5	-0.24375446
251	0x3e9aa05b	0.30200467
252	0x3a710735	0.00091944943
253	0xbe196ede	-0.14983699
254	0xbe5182aa	-0.2046
255	0x3fc72670	1.5558605

linear2.weight f4 [3, 256]
0	0xbd217538	-0.03941843
1	0xbb863150	-0.004095234
2	0x3ad74bb3	0.0016425758
3	0xbe2eec42	-0.17082313
4	0xbcc237b2	-0.023708198
5	0xbe5172c5	-0.20453937
6	0xbed48c4b	-0.41513285
7	0xbc91cbba	-0.01779734
8	0x3b133a65	0.0022465226
9	0xbe50c8aa	-0.20389047
10	0xbc12a427	-0.00895027
11	0xbe7f7b9e	-0.249495
12	0x3b99e6a1	0.0046966826
13	0x3d918d99	0.07107086
14	0xbdb355f5	-0.087566294
15	0x3c10e015	0.008842488
16	0x3eabfc31	0.33590844
17	0xbc54ad2e	-0.012980742
18	0xbb7a4ef0	-0.0038194023
19	0x3e4b9baa	0.198836
20	0xbc7f475a	-0.015580976
21	0x3ef9083c	0.48639095
22	0xbc41e605	-0.011834626
23	0xbb4feedb	-0.0031728062
24	0x3c4d2f86	0.0125235375
25	0x3f356367	0.708548
26	0xbeccff27	-0.40038416
27	0x3c609c45	0.013709133
28	0xbea3a7f8	-0.31964087
29	0xbdb6244b	-0.08893641
30	0xbe00930f	-0.12556098
31	0xbe5aa88d	-0.2135336
32	0xbd5142fb	-0.05108927
33	0x3c79c3bc	0.015244421
34	0x3d0546e5	0.032538313
35	0x3d4e9222	0.05043233
36	0xbe0d504c	-0.13800162
37	0x3c07a256	0.00827845
38	0x3c13d0e8	0.009021975
39	0x3be615bb	0.0070216334
40	0x3c15df5f	0.009147494
41	0x3eb53446	0.35391444
42	0xbe113c16	-0.14183077
43	0x3bb769c6	0.005597326
44	0xbe820cd5	-0.25400415
45	0xbeba968f	-0.36442992
46	0xbeec6fbd	-0.46179
47	0x3caecab1	0.021336885
48	0x3e4072f4	0.18793851
49	0x3bc10c60	0.005891368
50	0xbce8573e	-0.028361913
51	0xbbdf3f4f	-0.006812967
52	0xbd350492	-0.04419381
53	0x3e870db4	0.26377642
54	0x3b2ec018	0.002666479
55	0xbe8eed9f	-0.27915666
56	0x3ee39b53	0.4445444
57	0xbce1729d	-0.027520472
58	0xbe59b492	-0.21260288
59	0xbe756339	-0.23963632
60	0xbdc4fd54	-0.09618631
61	0xbe7ba71f	-0.2457547
62	0xbce04765	-0.027377794
63	0xbecb5837	-0.3971574
64	0x3bc7ed78	0.0061013065
65	0xbe377748	-0.17916596
66	0xbee707a8	-0.4512303
67	0xbe9f5779	-0.31121424
68	0x3d3d5ba9	0.046229992
69	0x3f0fb808	0.56140184
70	0x3da5b8b1	0.08091868
71	0xbd81a969	-0.063311405
72	0x3e868d45	0.26279655
73	0x3e04858e	0.12941572
74	0xbdd716ce	-0.105023965
75	0xbe5cd3ee	-0.2156522
76	0x3b5e80f7	0.003395138
77	0xbe51ae6b	-0.20476691
78	0x3e89e546	0.26932734
79	0xbda3bced	-0.07995019
80	0xbef5be00	-0.4799652
81	0x3eea8c72	0.45810276
82	0xbeaa64cb	-0.33280024
83	0xbf0326e1	-0.512312
84	0x3a4fd035	0.00079274486
85	0x3bc6771e	0.0060566803
86	0xbf0669e8	-0.5250535
87	0xbd4c9307	-0.049944904
88	0xbe6ffe08	-0.23436749
89	0x3dc4c48c	0.09607801
90	0x3f7e2d9f	0.9928836
91	0xbd94bccf	-0.07262575
92	0x3ca086f4	0.0195956
93	0xbd49b240	-0.049242258
94	0x3f43b639	0.76449925
95	0x3efe10fb	0.4962233
96	0xbd90799a	-0.07054444
97	0xbe0250ed	-0.12726183
98	0xbeaeb0ea	-0.3411935
99	0x3e911fe2	0.28344637
100	0x3cdf2c67	0.027242852
101	0xbab50791	-0.0013811459
102	0x3e8ae707	0.27129385
103	0x3b986dc7	0.0046517584
104	0xbe319640	-0.17342472
105	0x3c755b31	0.014975355
106	0xbe2d913b	-0.16949932
107	0xbbbd4bb0	-0.005776845
108	0xbcf0d9ff	-0.029400824
109	0xbd567741	-0.052359823
110	0xbe8b0fd4	-0.27160513
111	0xbe1dd83a	-0.15414515
112	0x3d60018d	0.05468898
113	0x3c644ffb	0.013935084
114	0x3c5bdb8e	0.013419045
115	0x3e819806	0.25311297
116	0xbfc6bdc8	-1.5526667
117	0xbd77f7ca	-0.060539044
118	0x3f1a88d4	0.60365033
119	0xbea7a6dd	-0.32744494
120	0xbd39690e	-0.045266204
121	0xbec81c8c	-0.3908428
122	0x3d457e62	0.04821623
123	0xbe203bd6	-0.15647826
124	0x3ba00145	0.004882964
125	0xbe017cd8	-0.1264528
126	0x3c185b18	0.009299062
127	0xbeb45d8d	-0.35227624
128	0xbe5e8000	-0.21728516
129	0x3e550498	0.20802534
130	0xbac1404c	-0.0014743893
131	0xbec21a94	-0.37910903
132	0xbdc426fc	-0.09577748
133	0xbb691b08	-0.003556909
134	0xbe9d3c06	-0.30709857
135	0xbe7d68ce	-0.24747011
136	0x3e11854c	0.14211005
137	0xbef94225	-0.48683277
138	0xbd683411	-0.05669028
139	0xbd58f779	-0.052970383
140	0xbd35ca5f	-0.04438245
141	0x3be2feff	0.0069273706
142	0xbe78dfb9	-0.24304093
143	0x3c17864c	0.009248327
144	0x3d05990a	0.032616653
145	0xbdaf98ed	-0.0857409
146	0xbc288793	-0.01028623
147	0xbe37156c	-0.17879266
148	0xbd17ed87	-0.037091758
149	0xbc01bc62	-0.007918449
150	0x3cbcb8e5	0.023037383
151	0xbca6b903	-0.020351892
152	0x3eead3fd	0.4586486
153	0x3efd9f61	0.4953566
154	0x38ba095b	8.870914e-05
155	0x3dc641fa	0.09680553
156	0xbec7c0e9	-0.39014366
157	0xbc4b5ad1	-0.012411789
158	0xbe3f2238	-0.18665397
159	0x3ecbffd4	0.3984362
160	0xbddba46b	-0.107247196
161	0x3cec9a0f	0.028882055
162	0xbcd52f87	-0.02602364
163	0xbf418336	-0.75590837
164	0xbe84307e	-0.25818247
165	0x3c1e0f42	0.009647192
166	0xbeeb085e	-0.4590482
167	0x3aeb90bd	0.0017972213
168	0xbcfd091d	-0.030888135
169	0xbd7ba817	-0.0614396
170	0xbebaa4af	-0.3645377
171	0xbb1e063a	-0.0024112598
172	0x3c0be8d9	0.008539402
173	0x3e961658	0.29313922
174	0xbecdf2a8	-0.40224195
175	0x3e857448	0.26065278
176	0x3b945124	0.0045262743
177	0xbe859299	-0.26088408
178	0xbc33f295	-0.010983129
179	0xbbd35983	-0.0064498796
180	0xbe9c54d4	-0.3053347
181	0x3d1291ca	0.035783567
182	0xbe37e3ca	-0.17957988
183	0xba57b645	-0.00082287594
184	0x3bab8310	0.0052341297
185	0xbe6fd8dd	-0.2342257
186	0xbe0468ea	-0.12930647
187	0x3c3c5ce5	0.011496757
188	0xbce49fc9	-0.027908223
189	0x3b77e83f	0.0037827638
190	0xbed3b051	-0.41345456
191	0x3f1b6396	0.6069883
192	0x3dfaec52	0.12252106
193	0x3c91f1a1	0.017815413
194	0xbc523034	-0.012828875
195	0xbedad667	-0.427417
196	0x3d31bb2e	0.0433914
197	0x3c9b30aa	0.018944103
198	0x383df698	4.529077e-05
199	0x3f9b3aa4	1.2127271
200	0x3f2e9e9f	0.68210787
201	0x3e8a4fab	0.27013907
202	0xbe665ef1	-0.22497155
203	0x3ea01305	0.3126451
204	0xbe6316dc	-0.22176689
205	0x3f52866f	0.8223638
206	0x3f2327cb	0.63732594
207	0x3d3e3156	0.04643377
208	0xbd3e5d1b	-0.04647551
209	0xbce3eb72	-0.02782223
210	0xbdc0065b	-0.09376212
211	0x3f120346	0.57036245
212	0xbe3c3f32	-0.18383482
213	0xbc47effe	-0.012203215
214	0x3ec829d1	0.39094403
215	0xbad10375	-0.0015946465
216	0x3e9f50f4	0.3111645
217	0xbc337cb8	-0.010955028
218	0xbe23a689	-0.15981497
219	0x3f46ddfd	0.7768248
220	0xbd551223	-0.05201925
221	0xbdf2b6d4	-0.11851278
222	0xbe143441	-0.14473058
223	0x3de58ad0	0.11208117
224	0xbd430550	-0.04761249
225	0xbc8d81ce	-0.01727381
226	0xbe1d94c6	-0.15388784
227	0x3df01a93	0.11723819
228	0xbd214a7b	-0.03937767
229	0xbd945a68	-0.07243806
230	0xbe992c10	-0.2991643
231	0xbe79dc26	-0.24400386
232	0xbd066d66	-0.032819174
233	0xbcfa0cb0	-0.030523628
234	0xbc199ac4	-0.009375278
235	0xbd8a1626	-0.06742506
236	0x3e98fe84	0.2988168
237	0xbe9ed382	-0.31020743
238	0x3b916f93	0.0044383495
239	0x3ec402c9	0.38283375
240	0xbd7f359d	-0.06230699
241	0xbf2f473e	-0.6846808
242	0xbf4269df	-0.75942796
243	0xbca5b97b	-0.020230046
244	0xbc75f6e5	-0.0150124775
245	0x3d8c61ee	0.06854616
246	0xbd96695f	-0.07344317
247	0x3c302b14	0.010752458
248	0xbeb82a54	-0.35969794
249	0xbe1e6ea7	-0.15471898
250	0xbebb1ddd	-0.3654622
251	0x3efbde89	0.49193218
252	0xbd04bc2c	-0.032406017
253	0xbcf9b983	-0.030483967
254	0x3c959017	0.018257184
255	0x3ee39aef	0.44454142

linear2.bias f4 [3]
0	0x3f64b41b	0.8933732
1	0x3e00f735	0.12594302
2	0xbdedbb24	-0.1160796
