model/model.pth (torch, 16799 bytes, 4 tensors)

linear1.weight f4 [256, 11]
0	0xbe015039	-0.12628259
1	0x3e80de6d	0.25169697
2	0x3d83832c	0.064215034
3	0x3e5ae2be	0.21375558
4	0xb8817a5a	-6.173989e-05
5	0xbd1414a5	-0.0361525
6	0x3c6f9dc6	0.014625018
7	0xbd6ff6d5	-0.058585007
8	0x3e7269c9	0.23673166
9	0xbe81c5ce	-0.25346226
10	0xbcdfb077	-0.027305825
11	0x3cf96e00	0.03044796
12	0x3d3d0126	0.046143673
13	0x3cb9ae51	0.022666128
14	0x3e17d57e	0.14827535
15	0x3e9c05db	0.30473217
16	0x3e74ad11	0.23894145
17	0x3e9d0273	0.3066593
18	0x3e64360f	0.22286247
19	0x3dcae62c	0.09907183
20	0x3c9a329c	0.01882296
21	0x3e40b735	0.18819888
22	0x3b9c6d62	0.0047737816
23	0xbe723338	-0.23652351
24	0xbe880b9b	-0.26571354
25	0xbcd0df3e	-0.025497075
26	0xbe9017e2	-0.2814322
27	0xbdf616be	-0.120160565
28	0x3d9f89d1	0.07789958
29	0x3d4cdf1f	0.050017472
30	0xbe605953	-0.21909074
31	0xbd19dd96	-0.037564836
32	0x3d082e33	0.033247184
33	0x3dd0c827	0.10194426
34	0x3e39df53	0.18151598
35	0xbdd478cb	-0.10374602
36	0xbe485f16	-0.19567522
37	0xbe5612eb	-0.20905654
38	0xbbb65212	-0.0055639828
39	0x3daa46b2	0.08314265
40	0x3eb19292	0.34682137
41	0x3e372b3e	0.1788759
42	0xbdefb4f6	-0.117044374
43	0x3e6d443e	0.23170564
44	0x3e8aef80	0.2713585
45	0x3cc79d57	0.024367018
46	0xbe62edd0	-0.22161031
47	0xbe6076c1	-0.21920301
48	0xbe4f8df7	-0.20268999
49	0x3e14cab2	0.14530447
50	0x3e764ba0	0.24052286
51	0x3dcc5611	0.09977353
52	0x3cb45836	0.022014719
53	0x3dcdb67e	0.10044573
54	0xbe887945	-0.2665502
55	0xbe21c82b	-0.15799014
56	0x3e892419	0.26785353
57	0xbe539213	-0.20661192
58	0x3e75a18d	0.23987408
59	0x3cfd2ef4	0.030906178
60	0xbb54d624	-0.003247627
61	0x3db33965	0.087511815
62	0x3e649571	0.22322632
63	0x3d50153f	0.05080151
64	0xbeac0706	-0.33599108
65	0xbde18d75	-0.11013309
66	0x3e2e223d	0.17005248
67	0x3e92f457	0.28702042
68	0x3e83d194	0.25745833
69	0xbe3da307	-0.18519221
70	0x3e48cdf4	0.19609815
71	0x3d995168	0.0748623
72	0x3e5a9030	0.21344066
73	0x3e294564	0.16530377
74	0xbd774586	-0.060369037
75	0x3e1d1a1c	0.15341991
76	0xbe264fcb	-0.16241376
77	0x3db4669d	0.088086344
78	0x3e030e00	0.1279831
79	0x3c57a34b	0.013161491
80	0x3deb6ea5	0.11495713
81	0x3ea476bc	0.32121837
82	0x3d1970c6	0.037461065
83	0x3eadce01	0.3394623
84	0x3e4dbc9f	0.20091484
85	0xbe566071	-0.20935227
86	0x3dfc23f1	0.12311543
87	0x3db66a8a	0.089070395
88	0xbd80ea5a	-0.06294699
89	0x3ebded62	0.3709517
90	0xbdf0ced2	-0.11758198
91	0xbe6f029a	-0.23340836
92	0xbe1efad2	-0.15525368
93	0x3d4b17b5	0.049583156
94	0x3cd1fcda	0.025633264
95	0x3e7f083a	0.24905482
96	0x3d974304	0.07385829
97	0xbe05717e	-0.13031575
98	0x3d1904c9	0.03735808
99	0xbe40082b	-0.18753116
100	0xbe6e0d3a	-0.23247233
101	0x3e8999d4	0.26875174
102	0x3e7ac00e	0.24487326
103	0xbe79da9a	-0.24399796
104	0xbdd68d3d	-0.10476158
105	0x3e9f3f28	0.31102872
106	0x3ea23fa3	0.31689176
107	0xbe6bcaa4	-0.2302652
108	0x3ccd1d24	0.02503831
109	0xbea4a999	-0.32160643
110	0xbe0cd33c	-0.13752455
111	0x3e8723db	0.26394543
112	0x3e7df5a5	0.24800737
113	0x3e43d57a	0.19124404
114	0xbe4eb092	-0.20184544
115	0x3e43f277	0.19135462
116	0x3e870640	0.26371956
117	0x3daf9639	0.085735746
118	0xbea93333	-0.33046874
119	0xbe42f69b	-0.19039385
120	0x3eb17693	0.34660777
121	0xbcab4a99	-0.020909594
122	0x3e0b4965	0.13602217
123	0xbe0e0eba	-0.13872805
124	0x3e66f627	0.22554837
125	0x3cfa7bd6	0.030576628
126	0xbe8f69df	-0.2801046
127	0x3e16262d	0.14663
128	0xbe0e07de	-0.13870189
129	0x3e2883c3	0.16456513
130	0xbdc28e9a	-0.09499855
131	0x3e335bd4	0.17515498
132	0x3b3ff1c4	0.002928839
133	0x3e5abb1f	0.21360444
134	0x3eb61464	0.35562432
135	0x3d720968	0.059091
136	0x3e34e08a	0.1766378
137	0x3e7e98b6	0.24862942
138	0x3e4f2bcb	0.2023155
139	0x3e9d4a12	0.30720574
140	0x3e4118f4	0.18857175
141	0xbdb0875e	-0.08619569
142	0x3e8f45d6	0.27982968
143	0xbe3712fc	-0.17878336
144	0x3c453ce0	0.0120384395
145	0x3e3e835f	0.18604802
146	0x3e59e8b9	0.21280183
147	0xbe52a718	-0.20571554
148	0xbe947e0a	-0.2900241
149	0x3e1f7f3b	0.15575878
150	0xbe874102	-0.26416785
151	0x3cf9aca5	0.030477831
152	0xbe280192	-0.16406849
153	0xbe1d2503	-0.1534615
154	0xbdccd61b	-0.10001775
155	0xbe7e44e1	-0.24830963
156	0xbe0a1660	-0.13485098
157	0xbe150717	-0.14553486
158	0x3dd1d236	0.10245173
159	0x3e86a81d	0.26300135
160	0x3b70378a	0.0036654198
161	0xbcbd20e3	-0.02308697
162	0xbe091452	-0.13386658
163	0x3e0f3536	0.13985142
164	0xbe8dff07	-0.27733633
165	0x3d1dff92	0.03857381
166	0x3d3ca2d7	0.046053734
167	0xbe881406	-0.26577777
168	0xbdb0c18e	-0.086306676
169	0xbe64b821	-0.22335865
170	0x3d722dcb	0.059125703
171	0x3d8e9980	0.069628716
172	0xbd036689	-0.032080207
173	0xbdd39a4f	-0.103321664
174	0x3d8a25a2	0.06745459
175	0xbe9373e2	-0.2879935
176	0x3e1dd2e4	0.1541248
177	0x3e427fd6	0.18994078
178	0xbe9ac000	-0.3022461
179	0xbd881737	-0.06645053
180	0xbe68a77c	-0.2272014
181	0x3db252d4	0.087072045
182	0x3ddb49c1	0.10707427
183	0x3e4303e5	0.19044454
184	0xbe160131	-0.14648892
185	0x3dd42448	0.103584826
186	0x3e7afee7	0.245113
187	0xbe06cd20	-0.13164186
188	0xbe755de1	-0.23961593
189	0xbcae0b4d	-0.021245623
190	0xbe960b2c	-0.29305398
191	0xbe3709cf	-0.17874835
192	0xbe311b10	-0.1729548
193	0x3d941a70	0.07231605
194	0x3dab2dd3	0.0835835
195	0x3d84bcf0	0.064813495
196	0xbe80fc38	-0.25192428
197	0xbd14033d	-0.0361359
198	0xbe3a3730	-0.18185115
199	0xbcb5038b	-0.022096416
200	0x3d773791	0.060355727
201	0xbe50433e	-0.20338151
202	0xbe0cd5b1	-0.13753392
203	0xbe38be58	-0.1804136
204	0x3d9469c3	0.07246735
205	0x3e667f1f	0.2250943
206	0xbe9912d6	-0.29897183
207	0xbcc28664	-0.023745723
208	0xbd24b0d1	-0.040207688
209	0x3db60d36	0.088892385
210	0xbe703074	-0.23455983
211	0x3e2aacc7	0.16667472
212	0xbe5cf149	-0.21576418
213	0xbeb98fdf	-0.36242577
214	0x3e2d0352	0.16895798
215	0x3e8dff80	0.27733994
216	0xbcd79f62	-0.026321117
217	0x3e7d72b6	0.2475079
218	0x3e46afb2	0.1940296
219	0xbe377b55	-0.17918141
220	0xbdc09257	-0.09402912
221	0xbdb7b436	-0.089699194
222	0x3d627f94	0.05529745
223	0xbe676f9c	-0.2260117
224	0x3dd85697	0.10563391
225	0x3d986b49	0.07442338
226	0xbe3fb062	-0.18719628
227	0x3eb7b4d4	0.35880148
228	0x3cdfc4e5	0.027315566
229	0x3db803ae	0.08985077
230	0x3e1f08ec	0.15530747
231	0xbbd8379c	-0.006598426
232	0x3e99ba47	0.3002493
233	0x3e62ad70	0.22136474
234	0xbe02b898	-0.1276573
235	0xbe45d5b6	-0.19319806
236	0xbb0683c3	-0.0020525313
237	0x3e5cc1d8	0.2155832
238	0x3e397520	0.18111086
239	0x3d8455e6	0.06461696
240	0x3cb3e673	0.021960473
241	0x3ead362d	0.33830395
242	0x3d82edcf	0.06393015
243	0x3cabb11e	0.02095848
244	0x3c6ae4ee	0.014336808
245	0xbe154f11	-0.14580943
246	0xbe933c91	-0.28757146
247	0x3e01f084	0.12689406
248	0xbd844d39	-0.064600416
249	0x3d42d09d	0.04756223
250	0xbe8e4929	-0.27790192
251	0x3e154a55	0.14579137
252	0xbe4f853a	-0.20265666
253	0x3ebd7156	0.3700053
254	0xbe8bcdeb	-0.2730554
255	0xbe5b78de	-0.21432826

linear1.bias f4 [256]
0	0xbe8b6c94	-0.27231276
1	0xbcce70c8	-0.025200263
2	0xbe32b76f	-0.17452787
3	0x3eba4990	0.3638425
4	0xbea66ec5	-0.32506385
5	0xbd8d8a34	-0.06911126
6	0xbb60e426	-0.0034315675
7	0x3ecbb0b5	0.39783254
8	0xbe42196e	-0.18955013
9	0x3e8494f7	0.258949
10	0x3d457050	0.048202813
11	0xbe1e2b79	-0.15446271
12	0xbe22ea1b	-0.15909617
13	0xbdbb9294	-0.09158817
14	0xbd0e76c6	-0.03478124
15	0x3df68434	0.120369345
16	0xbdfe8bf8	-0.12429041
17	0xbcbb8ffa	-0.022895802
18	0xbea8b7f4	-0.32952845
19	0x3d938f8f	0.07205116
20	0x3e970313	0.29494533
21	0x3e37ff48	0.17968476
22	0xbea7b3be	-0.3275432
23	0xbe87008c	-0.26367605
24	0x3dbd18c3	0.092332385
25	0xbe12723b	-0.14301388
26	0x3e3fbe1d	0.18724866
27	0xbdb9e140	-0.09076166
28	0xbe282c0f	-0.16423057
29	0xbe24b1d2	-0.16083458
30	0xbde8ac66	-0.113610074
31	0x3e87faec	0.26558626
32	0x3bfbd3b8	0.007685151
33	0x3e340f8c	0.17584056
34	0x3ea2a599	0.31766966
35	0xbe5eb6a0	-0.21749353
36	0x3ddd0675	0.10792247
37	0xbd962a54	-0.07332292
38	0xbdc14aed	-0.09438119
39	0xbe2cd1ea	-0.16876951
40	0x3d245811	0.04012305
41	0x3e6b0bdb	0.22953741
42	0xbdb806e5	-0.0898569
43	0x3e8607ec	0.2617792
44	0xbd3e0b50	-0.046397507
45	0xbd29349c	-0.041309938
46	0x3cbe515d	0.023232156
47	0xba1659cb	-0.0005735426
48	0x3e63bf77	0.22241007
49	0xbe5e76c5	-0.21724994
50	0x3dbc8f67	0.09207039
51	0xbceee8a6	-0.02916367
52	0x3e8849b7	0.2661874
53	0xbd452159	-0.048127506
54	0x3d30d678	0.043173283
55	0x3dd480cb	0.10376128
56	0xbe44c7e1	-0.19216873
57	0x3e395ac7	0.18101035
58	0x3e2f548f	0.171221
59	0x3e39aab8	0.1813153
60	0xbdc89d6d	-0.097956516
61	0x3b9acd10	0.0047241524
62	0x3e25ed83	0.16203885
63	0xbe90e769	-0.28301552
64	0xbe8c9ff1	-0.27465776
65	0xbdcc7809	-0.099838324
66	0xbe10bd07	-0.14134608
67	0x3d69c204	0.057069793
68	0xbe1df9f4	-0.15427381
69	0xbe205fd4	-0.15661556
70	0x3e2d45c2	0.16921142
71	0x3e212bff	0.1573944
72	0xbdac795b	-0.08421584
73	0xbe50b7e3	-0.20382647
74	0xbde73d0b	-0.1129094
75	0x3b8a88b7	0.0042277235
76	0xbd8f6266	-0.0700119
77	0x3b33d4bf	0.002744004
78	0x3e829fb7	0.25512478
79	0x3e00649a	0.12538376
80	0x3dedaa19	0.11604709
81	0xbdb5b9f8	-0.08873361
82	0x3eb631bb	0.35584816
83	0x3d9e0bca	0.07717092
84	0xbe947d6e	-0.29001945
85	0xbd66dd3e	-0.056363337
86	0xbe9973b8	-0.299711
87	0x3e122f88	0.14275944
88	0x3e3e62a7	0.1859232
89	0xbea7c3e3	-0.32766637
90	0x3e34b334	0.17646486
91	0xbe600752	-0.21877792
92	0xbdf59cbb	-0.119927846
93	0x3e78bda3	0.2429109
94	0xbe37b676	-0.17940697
95	0x3e02ae11	0.12761714
96	0xbe1fe7bb	-0.15615742
97	0xbdd897d2	-0.105758324
98	0x3e6b3ae7	0.22971688
99	0xbce6d73d	-0.028178805
100	0x3e0c93ec	0.13728303
101	0x3e5bc422	0.21461537
102	0xbe38e588	-0.18056309
103	0x3e8abc45	0.27096763
104	0xbe1d5492	-0.15364292
105	0x3ea56714	0.32305205
106	0xbb7fd49c	-0.0039036637
107	0xbe49e339	-0.19715585
108	0x3e34e577	0.17665659
109	0x3e21e988	0.15811741
110	0x3e90b2dd	0.28261462
111	0xbe38c4c2	-0.18043807
112	0xbd6feb6b	-0.05857412
113	0xbe989663	-0.29802236
114	0xbd4a6e45	-0.049421567
115	0x3d2fa02d	0.042877365
116	0x3d4b70c3	0.049668085
117	0xbdd1a87b	-0.10237213
118	0x3d2295bf	0.03969359
119	0xbe6b3edd	-0.22973199
120	0x3cf1faaa	0.029538471
121	0x3ea1f116	0.31629246
122	0xbe3c2b55	-0.18375905
123	0x3e9d2eeb	0.30699858
124	0x3e545031	0.20733716
125	0xbe11ec08	-0.14250195
126	0x3e8d1734	0.27556765
127	0x3e6a0d8f	0.22856735
128	0x3dee55c5	0.11637453
129	0x3e805426	0.250642
130	0xbe964e0b	-0.29356417
131	0xbdb3da52	-0.08781876
132	0x3e9eb572	0.30997807
133	0xbe1ba398	-0.15199125
134	0xbd53b3cb	-0.051685136
135	0x3ddd93a1	0.108191736
136	0x3d864c18	0.065574825
137	0xbe867c72	-0.2626682
138	0xbd6facd3	-0.058514427
139	0xbe9e3073	-0.3089634
140	0x3e84074b	0.25786814
141	0x3edd37be	0.4320659
142	0xbe9cda2e	-0.30635208
143	0xbe2af9f1	-0.16696908
144	0x3e1ad710	0.15121102
145	0x3dfdf2ee	0.12399851
146	0x3e328f9a	0.17437592
147	0xbc4f6960	-0.012659401
148	0xbe18da2a	-0.14926973
149	0x3e6d56de	0.23177668
150	0x3eb2757f	0.34855267
151	0xbc35b9c9	-0.011091658
152	0x3c976b2b	0.018483719
153	0x3cd3815d	0.025818521
154	0xbe909399	-0.28237608
155	0x3e85a425	0.26101795
156	0x3e2e3f56	0.17016348
157	0xbdc213d0	-0.09476435
158	0x3be3096a	0.0069286125
159	0x3d0daa4d	0.03458624
160	0xbe9d7784	-0.30755246
161	0xbdd2b4d4	-0.102883965
162	0x3e018c63	0.1265121
163	0xbe2eea97	-0.17081676
164	0x3ea9dfed	0.33178654
165	0x3ea3f3a8	0.32021832
166	0xbc7ddf16	-0.015495082
167	0x3e5e9523	0.21736579
168	0xbe1db268	-0.15400088
169	0xbce99680	-0.028514147
170	0x3ea73a19	0.32661512
171	0xbdbd3f3f	-0.09240579
172	0x3eb88c31	0.36044458
173	0x3e7a0e05	0.2441941
174	0xbe49dd20	-0.19713259
175	0xbe3c87f3	-0.18411236
176	0x3e092bd5	0.13395627
177	0xbe8c9060	-0.274539
178	0x3da1907d	0.07888887
179	0xbe756d15	-0.23967393
180	0xbde39f3d	-0.11114357
181	0xbb092de0	-0.0020931885
182	0xbea98d5c	-0.3311566
183	0x3ea82ca5	0.3284656
184	0xbddc4b6a	-0.107565716
185	0x3d0107a8	0.031501442
186	0xbd3b3a04	-0.045709625
187	0x3e1fbaf1	0.15598656
188	0x3ea460bb	0.3210505
189	0xbe4f6354	-0.20252734
190	0x3e241d8b	0.16026895
191	0x3e4d0de0	0.20024824
192	0xbe775f17	-0.24157368
193	0x3da6311f	0.08114838
194	0x3e7f740b	0.2494661
195	0xbdeab11f	-0.114595644
196	0xbdd44758	-0.1036517
197	0x3e974258	0.29542804
198	0xbe94df89	-0.29076794
199	0x3e2cd5d9	0.16878451
200	0xbdcfca8d	-0.10146055
201	0xbdf7fc04	-0.12108615
202	0x3dbaaefd	0.091154076
203	0xbd650726	-0.05591502
204	0xbd8cc6f8	-0.06873888
205	0xbdfe0aab	-0.124043785
206	0x3bfb8a97	0.0076764333
207	0xbe212f7f	-0.15740775
208	0x3e296efa	0.1654624
209	0xbe9d95a6	-0.30778235
210	0x3e76a48d	0.24086209
211	0x3c7fe6db	0.015619005
212	0x3e16daf7	0.14731966
213	0x3e614ac7	0.22001182
214	0xbdd58d66	-0.1042736
215	0xbdd9a3c7	-0.10626941
216	0x3e14e5a8	0.14540732
217	0x3b4b3fbb	0.0031013328
218	0x3d062865	0.032753367
219	0xbe1515e0	-0.14559126
220	0x3dd406e8	0.1035288
221	0xbe819990	-0.2531247
222	0xbe81db1a	-0.25362474
223	0xbe0a9374	-0.13532811
224	0x3d87c51c	0.066293925
225	0xbd853b09	-0.06505401
226	0xbe75bc78	-0.23997676
227	0x3e14082a	0.1445624
228	0xbe86ae8c	-0.26305044
229	0x3e391252	0.18073395
230	0x3dd03c10	0.10167706
231	0xbe94869f	-0.29008958
232	0xbd8b2d60	-0.06795764
233	0x3e9bc367	0.30422518
234	0xbe05e89c	-0.13077015
235	0x3e196f6a	0.14983907
236	0x3d81374e	0.06309377
237	0xbd0f5f1d	-0.035002816
238	0xbe509a54	-0.20371372
239	0x3ea34fba	0.31896764
240	0x3d02359d	0.03178941
241	0x3e1ce04a	0.15319934
242	0xbe77c1db	-0.24195044
243	0xbe4b0720	-0.19826937
244	0x3e3e0de6	0.1855999
245	0x3c9211bb	0.01783072
246	0x3e0b85ca	0.13625255
247	0x3eb9a3ca	0.36257774
248	0xbd5b79ce	-0.05358296
249	0x3db3b933	0.08775558
250	0x3e88775d	0.26653567
251	0x3c0af2d8	0.00848075
252	0x3e0027aa	0.1251513
253	0x3e5fb7a7	0.21847402
254	0x3e003c6f	0.12523054
255	0xbe0f89ce	-0.14017412

linear2.weight f4 [3, 256]
0	0xbd02ae76	-0.03190466
1	0xbde7f369	-0.11325724
2	0x3c463c42	0.0120993275
3	0xbdc729fd	-0.097248055
4	0x3b584797	0.0033001655
5	0xbcb6a6c9	-0.022296326
6	0xbd03c262	-0.0321678
7	0xbdb22310	-0.08698094
8	0x3c8df4b1	0.017328592
9	0xba283875	-0.0006417104
10	0x3c9fd5c6	0.019511115
11	0x3ba15a8f	0.0049241255
12	0xbcf8f089	-0.030388134
13	0xba0eeffa	-0.00054526294
14	0x3d1320b9	0.03591988
15	0x3c3bddb9	0.011466437
16	0xbd0efb3b	-0.03490756
17	0xbc1b2c58	-0.009471022
18	0x3cb84dc1	0.022498013
19	0xbd90dc1f	-0.07073235
20	0xbc1e29cb	-0.009653519
21	0xbd8d4b9d	-0.06899188
22	0x3d9be71a	0.076124385
23	0xbd8d5342	-0.06900646
24	0x3cdcd93e	0.026959058
25	0x3e0f90d5	0.14020093
26	0xbc932a33	-0.017964458
27	0xbded09a8	-0.115741074
28	0x3b148026	0.002265939
29	0xbc47066e	-0.012147529
30	0x3d4bb19c	0.04972993
31	0xbc93db4a	-0.018048901
32	0x3d964337	0.07337039
33	0xbd6e2cab	-0.058148067
34	0xbd0e7e79	-0.034788582
35	0xbd2ef809	-0.042717014
36	0xbdfad030	-0.1224674
37	0xbc1c8644	-0.009553496
38	0xbd4dcaa8	-0.050242096
39	0xbd178b3b	-0.036998015
40	0x3c676655	0.014123519
41	0xbd112ab1	-0.035441104
42	0xbd43f109	-0.04783729
43	0xbbcf5e0c	-0.00632835
44	0xbdd96469	-0.10614855
45	0xbbb2a5de	-0.005451902
46	0x3ce20d0a	0.027594108
47	0x3d8b875f	0.06812929
48	0xbcea84d3	-0.028627789
49	0x3903b490	0.00012560398
50	0x3d753250	0.059862435
51	0xbca4968f	-0.020091323
52	0xbdcfdd5a	-0.10149641
53	0xbd85cb12	-0.06532873
54	0xbd879c23	-0.066215776
55	0xbd787b11	-0.06066424
56	0x3bd15920	0.0063887984
57	0xbd1892a3	-0.03724922
58	0x3e15cf21	0.14629795
59	0xbc9b8d94	-0.018988408
60	0xbd998056	-0.07495181
61	0xbd213222	-0.03935445
62	0x3dc5ceaf	0.096585624
63	0xbd49ee07	-0.049299266
64	0x3c947cec	0.018125974
65	0xbd0eff87	-0.03491166
66	0xbd2e1173	-0.04249711
67	0xbdfb5a33	-0.122730635
68	0x3c7c936b	0.015416007
69	0xbd8a6e99	-0.06759376
70	0xbdae8452	-0.08521332
71	0xbda47945	-0.08030943
72	0x3b6b985e	0.0035948972
73	0x3ccbc0e1	0.024872245
74	0xbdab782f	-0.083725326
75	0x3d4beade	0.049784534
76	0xb9ad6e60	-0.00033079367
77	0xbdf3eb76	-0.11910145
78	0xbd4bd3fb	-0.049762707
79	0xbcfe38d4	-0.031032957
80	0x3d05e886	0.032692455
81	0x3ddda2d9	0.10822076
82	0xbda22623	-0.0791743
83	0xbcb024bd	-0.021501893
84	0xbbb566e1	-0.0055359458
85	0x3c90c382	0.01767135
86	0x3d8ef811	0.06980909
87	0xbd658b1c	-0.05604087
88	0x3e0d846d	0.13820048
89	0x3b9fdec2	0.0048788497
90	0xbd3a98d1	-0.045555893
91	0x3c3c8a9c	0.011507656
92	0xbdcdd1a0	-0.100497484
93	0xbd64eb7b	-0.055888634
94	0x3d940e33	0.07229271
95	0xbd750820	-0.0598222
96	0xbcbd09a4	-0.023075886
97	0xbd552678	-0.05203864
98	0xbe007058	-0.12542856
99	0xbe1c1487	-0.15242206
100	0x3de0c4ab	0.109750114
101	0xbdb28340	-0.0871644
102	0xbc1805f8	-0.009278767
103	0xbda0fd9f	-0.078608744
104	0x3c550eb8	0.0130039975
105	0xbd73388a	-0.05938009
106	0x3da3c26f	0.0799607
107	0xbd562c84	-0.052288547
108	0xbd3d5266	-0.04622116
109	0xbc8f6459	-0.017503904
110	0xbdd1c16c	-0.102419704
111	0x3c536381	0.012902142
112	0x3b9f7c7d	0.004867135
113	0x3d6ecc50	0.058300316
114	0xbd2190a9	-0.0394446
115	0xbb8fa60e	-0.004383809
116	0xbdce49cf	-0.100726716
117	0xbcff2d03	-0.031149393
118	0xbde22c16	-0.11043565
119	0xbe172fd5	-0.1476434
120	0x3bd27812	0.006423005
121	0xbc8d7c5a	-0.01727121
122	0xbe01af9f	-0.1266465
123	0xbc1bab08	-0.009501226
124	0xbc4dc78f	-0.0125597855
125	0x3d499b06	0.049220107
126	0xbd877f5e	-0.0661609
127	0xbda7d341	-0.0819459
128	0xbdab98e8	-0.08378774
129	0xbd98a2a9	-0.074529
130	0xbcd66d31	-0.026175113
131	0x3d74ef72	0.059798665
132	0x3d5cdaf8	0.053919762
133	0xbd0697b5	-0.032859523
134	0xbd0db30a	-0.034594573
135	0xbdc2d4b6	-0.09513228
136	0x3ea62a3c	0.32454097
137	0xbc89f017	-0.016838117
138	0x39e1a3f3	0.00043037496
139	0xbd033ddb	-0.03204141
140	0xbdc7433d	-0.097296216
141	0xbd9c69d8	-0.076373756
142	0xbcb8493e	-0.022495862
143	0xbd52df5b	-0.05148254
144	0xbd30d68b	-0.043173354
145	0xbd053c22	-0.03252805
146	0xbd23d6e0	-0.039999843
147	0xbc318a94	-0.010836262
148	0xbe038b86	-0.12846193
149	0xbd4b7b8b	-0.049678367
150	0xbd5f4adb	-0.054514747
151	0xbd053e4f	-0.032530125
152	0x3db52ff2	0.088470355
153	0xbde5caab	-0.112202965
154	0xbcd4ae60	-0.025962055
155	0xbdb0cae5	-0.08632449
156	0xbdad15e6	-0.084514424
157	0xbd0192a2	-0.03163398
158	0xbd885c82	-0.066582695
159	0xbddda5ce	-0.1082264
160	0x3bcbb508	0.006216649
161	0x3d281fd0	0.041045964
162	0xbdbe2103	-0.0928364
163	0xbd0c58f4	-0.03426452
164	0xbe102bf9	-0.14079274
165	0xbd240bd9	-0.04005036
166	0xbc9ab2a8	-0.018884018
167	0xbd18b9ee	-0.03728669
168	0x3d7f41e8	0.062318712
169	0xbe207e10	-0.15673089
170	0xbceb52e0	-0.028726041
171	0xbd3f4429	-0.046695862
172	0x3cf81d8c	0.030287527
173	0xbd9830dd	-0.07431195
174	0x3ca7ad32	0.020468328
175	0x3d43a0c5	0.047760744
176	0xbb90d8f3	-0.0044203936
177	0xbda8ce7b	-0.08242508
178	0x3bdafc23	0.006682889
179	0x3df55531	0.119791396
180	0x3d6f2152	0.058381386
181	0xbdfba3b3	-0.122870825
182	0xbc145d86	-0.009055501
183	0x3d19ee04	0.037580505
184	0x3a976328	0.0011549937
185	0xbd4bc065	-0.04974403
186	0xbdcdb3a7	-0.100440316
187	0x3e3c8b64	0.18412548
188	0xbcea480d	-0.02859881
189	0xbd8a59f7	-0.06755441
190	0xbd19b27c	-0.03752373
191	0x3cc21c35	0.02369509
192	0x3cfd4f27	0.030921532
193	0x3c8c5d56	0.01713435
194	0x3c2d769c	0.010587361
195	0x3c566b4b	0.013087104
196	0xbd2a5433	-0.041584205
197	0x3b55f61c	0.0032647913
198	0xbd2b67b0	-0.04184693
199	0xbc941fc4	-0.018081553
200	0xbd615527	-0.05501285
201	0x3d93c912	0.072160855
202	0xbcb90034	-0.022583105
203	0xbd958952	-0.073015824
204	0xbc9ab324	-0.018884249
205	0xbc8c9b03	-0.01716376
206	0x3c864287	0.016389145
207	0x3d379013	0.044815134
208	0x3dad7ffe	0.08471678
209	0xbc799750	-0.01523383
210	0xba27c63a	-0.00064000825
211	0xbd4f16f5	-0.050559003
212	0xbdc08732	-0.094007865
213	0xbd20c9a8	-0.039254814
214	0xbd6595e0	-0.056051135
215	0xbd00e8df	-0.031472083
216	0x3dddbd54	0.10827127
217	0x3c74847d	0.014924166
218	0x3b0f63f3	0.0021879643
219	0xbdbb62f3	-0.091497324
220	0x3df22c18	0.118248165
221	0xbac0e060	-0.0014715306
222	0x3cfd11a5	0.030892203
223	0x3d4b5903	0.049645435
224	0xbd7f7f4d	-0.062377263
225	0x3c0bbde8	0.008529164
226	0xbc369335	-0.011143495
227	0xbdc808ab	-0.09767278
228	0xbdc8a61d	-0.097973086
229	0x3e02f863	0.12790065
230	0xbd8269c7	-0.06367832
231	0xbd0cfcde	-0.03442084
232	0x3d0728f6	0.032998048
233	0xbd3501c7	-0.044191148
234	0xbde33ded	-0.11095796
235	0xbcff0c86	-0.031133901
236	0xbd96c2d1	-0.07361377
237	0xbde8be1d	-0.11364386
238	0x3d4d29b5	0.050088603
239	0xbd38f02f	-0.045150932
240	0xbd663cd8	-0.05621037
241	0xbd8e80fb	-0.06958195
242	0x3c820298	0.015870377
243	0x3d60c099	0.054871175
244	0xbd49dcac	-0.049282715
245	0x3c566c83	0.013087395
246	0xbdd44cf6	-0.10366242
247	0xbdf6ac4e	-0.12044583
248	0xbcfecf56	-0.031104725
249	0xbe135dba	-0.14391223
250	0x3ccd4026	0.025055002
251	0xbd261cca	-0.0405548
252	0xbd941545	-0.07230619
253	0xbda88cf8	-0.08230013
254	0xbda81934	-0.08207932
255	0xbe24b1ee	-0.160835

linear2.bias f4 [3]
0	0xbdbdb8a1	-0.09263731
1	0xbdf4bd16	-0.11950128
2	0xbdc836e3	-0.09776094
